Segmentation_UNet_Transformers/transformer_model.pth (torch, 119172 bytes, 9 tensors)

encoder.0.weight f4 [32, 3, 3, 3]
00000000: fbef 9d3f 100e 0641 8d44 11c1 9e81 68c0
00000010: 5b16 eac0 2f4c a3c0 8329 bbc0 d2e9 4f3f
00000020: 4ba8 fa40 f02a 943f 1a9b 0541 a787 10c1
00000030: c60c 6dc0 a505 f2c0 0972 aac0 35a8 b7c0
00000040: b961 2f3f 7212 0041 cee4 913f 67db 0641
00000050: ba55 12c1 9c8d 62c0 2b56 f1c0 17ec a4c0
00000060: 5d1b b3c0 3bda 083f f901 ff40 400b ba3d
00000070: f1f1 3fbe a82d 5dbe 9db6 5cbe 5611 c43d
00000080: f3c0 c7bd 5960 d0bc 456d f7bd aa29 08bd
00000090: ca79 8c3d bf1f f7bc 5c4e 0e3e 8211 a83d
000000a0: d845 5bbe d2d2 093e 9b26 99bd b4ab aa3d
000000b0: dffc 143e 68bb f3bd c6a9 fb3d 6449 1fbd
000000c0: ec0a 323d 541c 59be c98e 4ebd 8c50 4fbe
000000d0: adf8 cabd 5b84 52be 0270 81be a900 a3be
000000e0: 7de6 4ebe 1b08 26be a7f7 67be fd15 313d
000000f0: 2578 19be be34 85bd 13ff 6ebe df8e 7abd
00000100: 9f80 f2bd 82f2 f1bd c644 c9bc af4a f9bd
00000110: 4e02 143d e86c 58be c4b8 1bbe df8c b83c
00000120: 6ae7 e63c 4115 80be 05b1 99bd 15ec 04be
00000130: c60d 34be 07a4 99be 2075 70be fbe7 5abe
00000140: c5a0 60be 1a70 6bbf 39f9 20c0 6727 ecc0
00000150: 7a87 85c0 8680 0d41 3361 5ec0 c313 14c0
00000160: e9f9 adc0 cca6 d240 ecbb 90bf ec68 22c0
00000170: 1687 eec0 f0c1 86c0 1059 0b41 c4a1 54c0
00000180: a84a 19c0 3679 b0c0 a302 d040 6e45 a0bf
00000190: fbee 18c0 bb47 f0c0 3e02 84c0 9af4 0c41
000001a0: 212d 5ec0 9f0b 17c0 e5e9 a6c0 a59f d040
000001b0: 88fb 0e40 2567 d73f 3c9b 29bf dfe6 c13f
000001c0: 042b a2c0 be59 c23f 4164 35c0 f9b5 8a3d
000001d0: 6904 02bf 444c 1640 9332 c33f f2a9 28bf
000001e0: 6f89 bb3f 0e4f a5c0 0bd0 a73f 1ba0 28c0
000001f0: 467c b63e 8c12 f0be 43d5 0b40 f454 be3f
00000200: eae6 72bf 7c3b c23f 6f15 a1c0 a574 c23f
00000210: a494 34c0 bfba 803e e8ad 06bf 39da f5bd
00000220: d832 cfbb 8c08 443c 626e 3bbe 1844 69be
00000230: 5641 d6bc 7ac1 0cbe f2e4 41be 2ca4 79be
00000240: 0f13 89bd 3b0d 3bbe 2fc8 03bb 0938 34be
00000250: bd3f dcbd 9ef9 00be d54e dcba bc56 14be
00000260: 2fc2 f43d 90f3 743b b100 30bd 0740 dcbd
00000270: ec25 db3d a7a7 80bd 80d8 43bd ed63 48bd
00000280: 5217 df3d 2dee 31be f1a1 60be 580b 25bc
00000290: 69a7 46be a610 803e c3c7 553d 4c10 e3be
000002a0: 32ad c8bc 6434 2abf 5961 82be 6118 e9be
000002b0: 528b 33be f9c1 90be 875b 973e 386a 1abe
000002c0: a602 d4be 3f2c 01bc 7594 33bf 17b2 12be
000002d0: ecf9 08bf 32ac 95be c998 25be 5e6f 123e
000002e0: 2d01 1ebd ec80 e1be 10b7 66be 4b60 2abf
000002f0: 8286 9ebe df1f 51be 2006 ffbd b251 33be
00000300: 78a9 95bd 9b09 09be 07cd f1bd 4dae 21bd
00000310: ea4a 89be a723 61be 7030 8abe b63b a2be
00000320: 9f3f dabd 9b61 b1be 717f db3c 4872 b8bd
00000330: 96e1 15be 0ce4 7ebd 39bf 0cbe 1eb3 74be
00000340: 0b5f 78bb 86aa 3ebe d369 87be 742b 87bd
00000350: d1ff a6bc 5a40 21bd 7985 a1be da12 96be
00000360: 0d74 f5bd e64d 4dbe 9d6b c7be 552b 633c
00000370: c29a 94be de9f a0be 250b d4be 0696 99be
00000380: 7e59 3dbe 8a5c 5fbe bebc a7be b8b3 c9be
00000390: d47a afbe 2318 d5bd 1fec 97be c047 2fbe
000003a0: 73b4 18be 5ecf fabe 75cc 77be e0db 93be
000003b0: efaa 42be 1582 93be f6a9 fbbd 63ec 45be
000003c0: 5a1f 15be ce5f 51be 0beb 1abe d35a f5bc
000003d0: 93d7 273d 0313 63be 7830 37be efbf c23c
000003e0: 686e cb3a bcbb b33d c21b 29be d891 85be
000003f0: 2558 77be d8ca e53c d545 97be d482 383d
1.2338861 8.378433 -9.079236 -3.6329112 -7.315229 -5.1030498 -5.8488173 0.81216156
7.8330436 1.1575603 8.350367 -9.033118 -3.7039046 -7.563189 -5.3264203 -5.739283
0.6850849 8.004503 1.1397951 8.428565 -9.145929 -3.5398932 -7.5417686 -5.1538196
-5.5970902 0.53457993 7.968991 0.09084177 -0.18744637 -0.21599448 -0.21554036 0.09573619
-0.09753599 -0.025436567 -0.120813884 -0.03324286 0.06859167 -0.030166505 0.13897079 0.08206464
-0.21413362 0.13459328 -0.074780665 0.08333531 0.14549588 -0.11900979 0.12288241 -0.03888835
0.043467447 -0.21202213 -0.05042914 -0.2024557 -0.099107124 -0.20558302 -0.25280768 -0.3183644
-0.20205112 -0.1621403 -0.22653066 0.04323386 -0.14987238 -0.065042004 -0.2333949 -0.06117141
-0.11840939 -0.11813833 -0.024568927 -0.12172448 0.03613501 -0.21135294 -0.15207201 0.02252811
0.028186519 -0.25016215 -0.07504467 -0.12980683 -0.17583379 -0.30007955 -0.2348218 -0.21377556
-0.21936329 -0.9196793 -2.5152113 -7.37981 -4.1727877 8.843878 -3.4746826 -2.3137062
-5.4367566 6.582861 -1.1307349 -2.537654 -7.45399 -4.211174 8.709244 -3.3223734
-2.3951817 -5.5147963 6.500322 -1.2521188 -2.3895862 -7.508756 -4.1252737 8.809717
-3.4715044 -2.3600843 -5.2160516 6.519488 2.2341022 1.6828352 -0.66252494 1.5148581
-5.067751 1.5183637 -2.834244 0.0677299 -0.5078798 2.348405 1.5249809 -0.65884316
1.4651316 -5.1659 1.3110365 -2.634772 0.35641688 -0.4688915 2.1848915 1.4869676
-0.94883597 1.5174403 -5.0338664 1.5191847 -2.8215723 0.25142476 -0.5260911 -0.12004513
-0.0063231997 0.011964928 -0.18303826 -0.22779882 -0.026154201 -0.1374568 -0.18934992 -0.24379033
-0.06693088 -0.18266766 -0.0020108332 -0.175995 -0.107543446 -0.12595221 -0.0016808162 -0.14486212
0.119511 0.003737662 -0.04296941 -0.107544 0.107005924 -0.06281977 -0.047813892 -0.04892342
0.1089312 -0.17376013 -0.21936776 -0.010073505 -0.193998 0.25012702 0.05219246 -0.4434837
-0.024496648 -0.6648619 -0.25464895 -0.45526412 -0.17533615 -0.2827299 0.29562017 -0.15079582
-0.4140827 -0.007884084 -0.701484 -0.14325748 -0.5350635 -0.29232937 -0.16171564 0.14300296
-0.03857534 -0.44043672 -0.2253077 -0.6655318 -0.30961996 -0.20422314 -0.1245234 -0.17511633
-0.07307714 -0.1338257 -0.11806684 -0.039472867 -0.26814967 -0.21986257 -0.2699008 -0.3168618
-0.10656666 -0.3464478 0.026794167 -0.090061724 -0.14636835 -0.0622292 -0.1374482 -0.23896453
-0.0037898447 -0.18619737 -0.26447925 -0.06600085 -0.020385655 -0.03936801 -0.31547144 -0.29311258
-0.119850256 -0.20049247 -0.3894929 0.013865312 -0.2902432 -0.3137197 -0.41414753 -0.2999727
-0.1849117 -0.21812645 -0.32761186 -0.39394927 -0.34273398 -0.10404994 -0.29672334 -0.17117214
-0.14912586 -0.48986334 -0.24199088 -0.2887869 -0.19010518 -0.28810182 -0.12288277 -0.19328456
-0.14562741 -0.20446703 -0.15128724 -0.029950535 0.040977072 -0.22175221 -0.17889583 0.023773162
0.0015520575 0.08776042 -0.16514495 -0.26087832 -0.24154718 0.028050825 -0.29545465 0.045046642

encoder.0.bias f4 [32]
00000000: 017f 83c0 bcde c9bd f91b 5fbc 2ded 533b
00000010: 8c54 c0be 1ace a6bb cb87 11bf ccbc 13bb
00000020: 6178 e6bd 5f1a 17bd fd50 e4bd 594d 7abd
00000030: 6f5a ac3a 6916 74bc 0fbd 9bbf 8e06 04be
00000040: 9089 d8bd c221 77be e95e 2fbe be4b 46be
00000050: 3ddf 53be aa2c 4ebd c73c 83be 9942 3abe
00000060: d02d 79be 263d 95be 8f17 23be 8bf8 04be
00000070: f443 52c0 0cc9 103f 0465 c83e 1016 07bd
-4.1092534 -0.09856936 -0.013617509 0.0032337413 -0.37564504 -0.005090487 -0.5684783 -0.0022542952
-0.11253429 -0.036890384 -0.1114826 -0.06110892 0.001314951 -0.014897921 -1.2167071 -0.12893125
-0.10573113 -0.24133971 -0.17126049 -0.19364831 -0.20690627 -0.050335564 -0.25632307 -0.18189467
-0.24333882 -0.29148215 -0.15926956 -0.12985437 -3.2853975 0.56556773 0.3913957 -0.032980025

encoder.2.weight f4 [32, 32, 3, 3]
00000000: f138 9bbb 27eb 8fbd 145a aebd f017 8dbd
00000010: 7421 8cbc 0330 0cbd b2db d0bd 4a1a 73bc
00000020: c6bc c9bc a8bc 43bc 4fb2 e3bd f7b7 a8bc
00000030: 4b4a 10bc 2da1 a3bc b19a bebd d047 e9bd
00000040: d524 84bd 4d66 85bb 52ef 98bd 090f abbd
00000050: b86c a1bd d966 86bd ccb9 b3bd fb2d bfbd
00000060: 4377 15bd 0d0a b8bd 79a7 ddbc 0e40 a3bd
00000070: 28f3 4ebd 45dc d4bd fb64 9bbd d695 c2bd
00000080: ab52 9bbd f4a3 e0bc 26a2 afbd 3584 88bd
00000090: 439a 20bc 6e22 c2bb b54c cebc 542e a3bd
000000a0: 38bf 7cbd 3ad3 663c f15f 82bd e3c2 1fbd
000000b0: f9d3 53bd 5c58 8dbc c4fa f1bd e8e8 e2bd
000000c0: 022b e5bd 76fc 7ebd 32e2 d6bd 08d1 babd
000000d0: 95ac a5bd 175c cfbd ba7a 2fbc fa22 39bc
000000e0: a28c 9cbc 6883 923c b7c3 7cbd 87db b83b
000000f0: ac1f c0bd cbb5 18bd c4ec a1bd de72 b8bd
00000100: 9b95 dfbd 3cdf 8fbc 14ff 39bd 6035 84bd
00000110: c138 97bd 7f3c 8abd e0cb b2bc ba2e 95bd
00000120: 434a afbd 72cc 55bd fb86 a7ba 1c11 6dbd
00000130: 560b dcbc 0e62 84bc 51c2 efbd 0326 89bd
00000140: 5f42 30bc a95e 86bd e6f5 30bd 8b1e 8abd
00000150: 3567 59bd 91ea 9cbd 4c92 61bd d309 d7bc
00000160: 2989 f3bd 1275 f1bd de47 9bbd f738 c9bd
00000170: 87d1 00bd 61c0 50bd 44fd 8bbd 5fa0 dbbc
00000180: 2701 3cbc 453b cdbd 4587 06bd 28b9 1dbc
00000190: cbb9 bcbd 8c74 afbb 0883 88bd 771d bbbd
000001a0: 1c83 b1bd d40e cabc 5682 afbd bdff 8cbd
000001b0: 48c8 96bd 159f 1fbd a8ac 6bbd 7820 89bc
000001c0: 3449 a0bd dfdb aebd 1049 2fbd 0d32 c8bc
000001d0: 392a e8bd 6b5f 63bd e24d b8bd dc57 f2bd
000001e0: a3d4 91bd 437f 07bc 0f47 b9bd 9293 30bd
000001f0: f773 84bc 5805 a0bd 4c08 88bd 0416 b4bc
00000200: a335 3dbd 492d 94bc 843c d1bd f33a 44bd
00000210: 9d08 a3bd 67e5 9bbd 5df6 aebd ccf0 cebd
00000220: 4976 3dbd ebd6 a6bc e3a0 abbd 8835 6fbd
00000230: 59d0 85bd 2e5c aabd 41e4 fbbb 8bd0 b4bc
00000240: 9968 b7bd b75b a1bd 0dbe 09bd 82c8 e4bd
00000250: 6a19 87bd 2ea9 ecbd db6c 6fbd 18f0 55bd
00000260: 1303 5fbd d1aa cdbd 9d2e c1bd 1092 8bbc
00000270: 5c6e 57bd 8d96 29bd 00d3 f0bd 4c59 babb
00000280: 84b7 d3bd fbfd 41bd d083 49bd 241a 55bd
00000290: 3fa4 48bd 38c5 abbd 1f58 07bd 4053 02bd
000002a0: 5f55 70bd 7c0f 9bbd 2327 9fbc d833 f0bb
000002b0: d855 23bd b4cc 40bc 0b33 c7ba b191 0bbd
000002c0: 3c1a f2bc 955b 1dbc c058 87bd 2f40 8bbc
000002d0: 759e 79bd 5df3 21bd 792e ffbc c7ce 46bd
000002e0: 4422 50bd e0c2 a6bd e510 debd 2125 21bd
000002f0: 1700 79bd 76a1 6dbd 8aa4 bbbc 4f76 1dbd
00000300: 51f5 38bd f45a 44bd ceb4 92bb f952 06bd
00000310: addc a8bd 1f9a 88bd a08e b3bd a8a4 ddbc
00000320: 076e 9ebb eff4 11bd 5f90 f1bd 16c8 c3bd
00000330: ad3c 82bd 7e29 a3bc 840d 7abd f138 57bd
00000340: 96ae a6bd 4add 9abd fcdb 4abd a04f 86bc
00000350: 1a0b b4bd 7c67 83bc 5780 47bd 534b abbd
00000360: 0231 b4bd 12cf 2ebd a470 9d3b dbc4 7ebd
00000370: fe87 47bd 26c4 b6bd 35cd 74bb ee6c 65bd
00000380: 174c bfba e794 9dbd d872 e4bb 2c30 aebc
00000390: 9a3a 9bbd 0ec5 b0bd cf26 b9bd 309f 79bd
000003a0: 40c1 d8bd 5574 28bc 2dad 74bd 67af b2bd
000003b0: 45e5 e0bc cccf 1cbd e318 34bd a5c4 b5bc
000003c0: 93b4 e2bb 5d23 edbc a763 eabd 509b 68bd
000003d0: d716 d5bd 98a6 e6bd 1aab c9bc 2f77 9abd
000003e0: 0131 13bc 517d 0abd 0891 c9bc 5fb8 ecbc
000003f0: 58cf dfbd 9652 f1bd cd5f b3bd 61e5 8dbd
-0.0047370126 -0.070272736 -0.08513275 -0.06889331 -0.017105795 -0.034225475 -0.101981536 -0.014837811
-0.024626147 -0.011946835 -0.11117994 -0.020595534 -0.008806775 -0.019974316 -0.09306849 -0.1139065
-0.06452338 -0.004071033 -0.07467522 -0.08352477 -0.078820646 -0.065625854 -0.08775672 -0.09334942
-0.03649069 -0.08986292 -0.027057396 -0.07971202 -0.05052486 -0.103935756 -0.0758762 -0.09501235
-0.07584127 -0.027421929 -0.08575849 -0.066658415 -0.009802404 -0.0059245145 -0.025183061 -0.07967821
-0.061705798 0.014088446 -0.063659556 -0.039004218 -0.051715825 -0.017254047 -0.11815408 -0.110795796
-0.11189844 -0.062252484 -0.10492362 -0.09121901 -0.08089558 -0.101249866 -0.010710413 -0.011299843
-0.019110028 0.017884925 -0.061710086 0.005641404 -0.09381041 -0.037282746 -0.079064876 -0.09006284
-0.10917207 -0.017562501 -0.045409277 -0.06455493 -0.07383872 -0.0674982 -0.02182573 -0.07284303
-0.08559086 -0.052196927 -0.0012781316 -0.057877645 -0.026860874 -0.016160037 -0.11706985 -0.06696703
-0.010758012 -0.06561024 -0.043203257 -0.06744107 -0.05307694 -0.076619275 -0.05507116 -0.026249802
-0.118913956 -0.117899075 -0.07582067 -0.09825318 -0.03144982 -0.050964717 -0.06835416 -0.02680987
-0.011474884 -0.100210704 -0.032843847 -0.009626664 -0.09215125 -0.0053544696 -0.06665617 -0.09136479
-0.08667585 -0.024665274 -0.085697815 -0.06884716 -0.07362419 -0.03897007 -0.057537705 -0.016739115
-0.078264624 -0.08538031 -0.042794287 -0.024437929 -0.11336178 -0.05551092 -0.0899923 -0.11833164
-0.07120635 -0.008270088 -0.090467565 -0.043109484 -0.016168578 -0.07813519 -0.066422075 -0.021983154
-0.04619373 -0.018088 -0.102166206 -0.04790778 -0.07960627 -0.076121144 -0.08543084 -0.10104522
-0.046255384 -0.020366153 -0.08380296 -0.05840066 -0.0653388 -0.08318363 -0.007687122 -0.022072097
-0.08955497 -0.07878821 -0.033628512 -0.11171056 -0.06596644 -0.11555706 -0.058453422 -0.052230924
-0.05444629 -0.10042346 -0.09432719 -0.017037421 -0.05259548 -0.041403342 -0.11758995 -0.0056869145
-0.10337737 -0.047361355 -0.04919797 -0.052026883 -0.048984762 -0.08387226 -0.033043023 -0.031817675
-0.058675166 -0.07571313 -0.019427842 -0.007330399 -0.03987679 -0.011767555 -0.0015197707 -0.03407449
-0.029553525 -0.009604354 -0.066087246 -0.016998379 -0.060942132 -0.03953873 -0.03115009 -0.048537042
-0.05081393 -0.08142638 -0.10843066 -0.03934205 -0.0607911 -0.05801531 -0.022905607 -0.038442906
-0.045155827 -0.047938302 -0.00447712 -0.032793973 -0.082452156 -0.06670021 -0.08767438 -0.027056053
-0.0048348936 -0.035633978 -0.11795115 -0.09559648 -0.06359229 -0.019917246 -0.061048046 -0.052544538
-0.081387684 -0.07561739 -0.0495262 -0.01639539 -0.0879118 -0.016040556 -0.04870638 -0.08363976
-0.0879841 -0.042677946 0.0048046876 -0.062199455 -0.048713677 -0.08924131 -0.0037353758 -0.056012087
-0.001459482 -0.076944165 -0.0069716983 -0.021263205 -0.07579537 -0.08631335 -0.09040605 -0.06094283
-0.105837345 -0.010281642 -0.059735466 -0.087248616 -0.027453074 -0.038284108 -0.043969046 -0.022188494
-0.006918499 -0.028947527 -0.114447884 -0.056788743 -0.10404747 -0.11262244 -0.02461772 -0.07542264
-0.008983851 -0.033810917 -0.02460529 -0.028896509 -0.109282196 -0.1178333 -0.08758507 -0.06928516

encoder.2.bias f4 [32]
00000000: 8447 9fbd efd8 d23f 1ea7 8340 a42a d9be
00000010: f685 96bd 8d1c a9be 315e 1abd ca62 a8be
00000020: cd4b b7bd 4b67 c0bc 3d42 80be 9b92 c1bc
00000030: 2e00 93bd ffbc 98be 8942 9dbd d881 2f40
00000040: 3f21 25bf ef9b 0bbd a51e 89be 4225 2cc0
00000050: 3ec0 73c0 86c7 c93f 9b1a dabe ac79 aabc
00000060: b26b 05be 73c1 adc1 4798 46c1 9c34 dabe
00000070: 75fb d2bd 1cfe 4fbf 5e0e 8fbd 02ae 6abd
-0.077773124 1.6472453 4.11415 -0.42415345 -0.0734977 -0.33029595 -0.037687484 -0.3288787
-0.08950005 -0.023486754 -0.25050536 -0.023629477 -0.07177769 -0.29831693 -0.07678706 2.7423
-0.64503855 -0.034084257 -0.26781192 -2.689774 -3.8086085 1.5764015 -0.42598423 -0.02080997
-0.13029364 -21.719458 -12.412177 -0.42618263 -0.10301868 -0.81247115 -0.06985162 -0.057294853

decoder.0.weight f4 [32, 32, 3, 3]
00000000: cbc9 84bd d1e4 76bd 3085 a6bd 2a09 85bd
00000010: c2ed afbd 5e00 eebd 53a1 e7bd c0ab c0bd
00000020: f29f e5bd eaf4 36bc da7e f0bd 3034 8bbd
00000030: ddf0 5ebc bf5e 8cbd c4f5 4bbc 7b36 c7bd
00000040: d9ce 9dbd 618a d8bd 150a 89bc 6bb5 76bd
00000050: 83c4 a6bd 994e 99bd ff60 30bd 87c2 3dbc
00000060: c1cb 70bd 524b b1bd e277 e6bd 223d d3bd
00000070: 968d 16bd 3080 9dbd 3b59 3dbb ba7a 59bb
00000080: 30d2 7cbc 120c dbbd 5e31 51bd 416a 78bc
00000090: 748b 9abd 25c2 d4bd 72b9 c3bb ea8f b7bd
000000a0: b86d a1bd b4fc f5bc 86c2 853c 96a7 18bd
000000b0: 6407 0fbd ab7b 64bc 6f93 e0bd e42d a6bd
000000c0: fa0c b4bd ec51 acbd 1ad9 a1bc 5c58 c3bd
000000d0: e3ee b5bd 731b 9cbd e84f dabc 113b 84bd
000000e0: 84de 3abc b308 47bd 72ae ceba dcf3 b2bd
000000f0: 6e67 26bd 433f 62bd 7bdd 43bd 8a63 aebc
00000100: 7809 a1bc 2928 55bd e068 95bd 9bdb e2bd
00000110: ea9a aabc 4d0f a7bd b0f4 02bd 1e5d d4bd
00000120: afa5 75bd 8d7e c6bd 142d e1bd 3430 97bc
00000130: c0aa aebd 1450 28bc a033 67bd 46f0 eebd
00000140: 1e18 bcbd 9e37 d1bb 74e0 cebd 45bd d8bc
00000150: d448 afbd 28f8 f1bd 0ded d6bc 123e 89ba
00000160: 0cd2 b3bd 1ef7 83bd 6d5a aebd a052 f5bc
00000170: 61e8 b4bd 4b5f e5bd 0dea e2bd b43c acbd
00000180: 2bdc aabd d89c d2bd f973 98bd 87ce c9bc
00000190: 58a4 e3bd 077e d4bd 4c72 b7bc 752a b8bd
000001a0: 315f a8bd 4f27 efbc bafb 8ebc ddfa 8abd
000001b0: 7e37 0ebd 093c 4abc 736e 70bd 01cf 2ebd
000001c0: 7e43 6bbd 0135 d7bc 4e3a cbbd a945 1fbd
000001d0: c841 a2bd efc5 dfbd 93e6 b4bd 4b65 d3bd
000001e0: 441e b2bd 39a0 eebd e25a 92bd 3e78 c5bd
000001f0: fa86 90bc e499 a8bd f3ff a8bd 7601 7bbd
00000200: 1bec cdbd fa87 a3bd 574a 8fbc 30f6 a4bd
00000210: a232 86bd 4858 5dbc 3c6d a9bd 6c26 dcbd
00000220: 5e89 89bd b059 c8bd bda9 8bbd e981 8dbd
00000230: 8850 d2bd 7519 ebbc 20b2 bebd 0ebb 37bd
00000240: 2f8f 6dbc d892 95bd 9d27 06bd e1a1 b0bd
00000250: 5c4f 49bd 00b1 3fbc c6c6 ddbb 6afc 5fbc
00000260: 79f4 e0bd ea17 a7bd 6a36 92ba e8ec 6ebd
00000270: e31b 88bb 7483 47bd 9870 94bc 60f6 9ebb
00000280: 869d e9bb dd74 cbbc ea99 c9bc 9927 293d
00000290: d385 3bbd 5f70 f23b 6022 c4bd 6ac3 9fbc
000002a0: 45c9 80bd 3d74 bcbd 3e35 50bc df42 1bbc
000002b0: 22ab 97bd 8148 26bd 0919 d0bd 1cfb 33bd
000002c0: f62a 15bd 670f edbd d485 b2bd b7fb 1dbc
000002d0: c409 b1bb 28d8 edbd 06b3 24bd 098e bdbd
000002e0: 8a74 87bd e1f2 0bbc d1fa dabd 8058 0abd
000002f0: cf47 86bd 2f8d 8fba b1a2 a9bd 568f a4bc
00000300: 68db babd dd9a a2bd 214b adbc c55f 12bd
00000310: a89d a5bb c4d6 1ebc 0864 a9bc 966e 0ebd
00000320: 5afd 43bd 8600 c33b 236f cf3c fb7d 60bd
00000330: 26d0 ac3c 7222 0b3d 7f99 8b3b 37a3 91bd
00000340: 25f8 1cbd ae05 5dbd f633 9dbd 6f8a 6bbd
00000350: beed 8cbd 1871 6dbd 98a5 d0bd ae6a 32bd
00000360: 0f94 29bc 671f 13bc 5260 dcbd c85f fbbc
00000370: a0e5 01bd 12d0 83bd f8c0 debd 1b5c 75bb
00000380: 265f a6bc a86f 02bd 45f7 adbc eefd adbd
00000390: 4211 4ebd c6e4 a0bd 856d cebb e1fa 07bc
000003a0: a2ff b8bd b5e4 dfbd 90d8 61bd bb1a e7bd
000003b0: 3f5e 39bd 7a0c 72bd 3319 67bd b988 9ebc
000003c0: da06 31bd 14dc a5bd 11e6 aabd 6329 62bd
000003d0: e9e5 c9bd 1549 9abd bf87 e0bd 8df2 88bd
000003e0: 6919 a5bc f4c7 b9bb 13e3 9dbd 1c48 e1bc
000003f0: 98f0 b8bd 91d0 e0bc 03cb 19bd 926e b2bd
-0.064838015 -0.06027681 -0.08130872 -0.064958885 -0.085902706 -0.11621164 -0.11310067 -0.09407759
-0.11212148 -0.0111667905 -0.11742945 -0.06797063 -0.013607231 -0.06854009 -0.012448732 -0.09727188
-0.07705469 -0.10573269 -0.01672844 -0.060231607 -0.081429504 -0.074856944 -0.043061253 -0.011582023
-0.058788065 -0.08656944 -0.112533346 -0.103143945 -0.03675612 -0.076904655 -0.0028892297 -0.0033184723
-0.015430972 -0.106956616 -0.05107247 -0.015162052 -0.0754613 -0.10388593 -0.0059730345 -0.08962996
-0.07882255 -0.030027725 0.016328108 -0.037269197 -0.034919158 -0.0139455 -0.10965621 -0.08114222
-0.087915376 -0.08414063 -0.019756842 -0.095383376 -0.08883455 -0.07622423 -0.02664943 -0.064565785
-0.011405591 -0.04859228 -0.0015768541 -0.08737919 -0.040625982 -0.055236112 -0.047818642 -0.021287698
-0.019657835 -0.052040253 -0.07295394 -0.11077043 -0.020825822 -0.08157215 -0.031971633 -0.10369323
-0.05997246 -0.096921064 -0.10994926 -0.018455602 -0.08528662 -0.010272998 -0.056445718 -0.11666922
-0.091842875 -0.006384804 -0.10101405 -0.026457438 -0.08558813 -0.1181491 -0.026236081 -0.0010470769
-0.08780298 -0.06443618 -0.08513341 -0.029946625 -0.08833385 -0.11199816 -0.11079798 -0.08410016
-0.08342775 -0.10283822 -0.07443995 -0.024634613 -0.111153305 -0.103756 -0.022393368 -0.08992473
-0.08221281 -0.029193548 -0.017454017 -0.067861296 -0.03472089 -0.012343415 -0.058699083 -0.042677883
-0.057437412 -0.026270391 -0.0992323 -0.038884792 -0.07922703 -0.10926425 -0.08833041 -0.103220545
-0.08697179 -0.11651654 -0.07146241 -0.09642075 -0.017642487 -0.08232477 -0.082519434 -0.06128069
-0.10054799 -0.0798492 -0.017491503 -0.08054769 -0.06552626 -0.013509817 -0.08272788 -0.10749516
-0.06715654 -0.097827315 -0.068194844 -0.06909544 -0.10269266 -0.028698662 -0.093113184 -0.044856124
-0.01449947 -0.07303399 -0.032752622 -0.08624626 -0.04914795 -0.011699915 -0.0067680804 -0.01367102
-0.109841295 -0.08158858 -0.0011155133 -0.0583314 -0.004153715 -0.048709348 -0.018120095 -0.0048511475
-0.007129374 -0.024835998 -0.024609525 0.04129753 -0.04578192 0.0073986496 -0.09576869 -0.01950236
-0.06288389 -0.09201858 -0.012708006 -0.0094763925 -0.07405688 -0.04059649 -0.10161025 -0.04394065
-0.036417924 -0.115752034 -0.08716932 -0.009642533 -0.0054027755 -0.11613494 -0.040209793 -0.09255607
-0.06614025 -0.008541794 -0.10692371 -0.033775806 -0.06556665 -0.001095211 -0.08282984 -0.02008788
-0.0912388 -0.07939694 -0.021153988 -0.035735864 -0.0050541945 -0.009694759 -0.020677581 -0.03477343
-0.047849037 0.00595099 0.025321549 -0.054807644 0.021095347 0.033968396 0.0042602415 -0.07111209
-0.038322587 -0.053960495 -0.076759264 -0.057505067 -0.06881283 -0.057969183 -0.101878345 -0.04355877
-0.010350241 -0.008979655 -0.10760559 -0.03068532 -0.031713128 -0.06436171 -0.108766496 -0.0037438932
-0.020309042 -0.031844765 -0.021236071 -0.08495699 -0.050309427 -0.07856135 -0.006299677 -0.00829956
-0.09033133 -0.10932294 -0.05513817 -0.11284395 -0.045255896 -0.05909393 -0.056420516 -0.019352304
-0.043219425 -0.08098617 -0.08344663 -0.05521525 -0.09858305 -0.075334705 -0.109633915 -0.06686888
-0.020153718 -0.005669588 -0.077093266 -0.027500205 -0.090302646 -0.027443202 -0.037547123 -0.08712496

decoder.0.bias f4 [32]
00000000: 0123 97bd 6a9a 48c0 006d c5bf 3192 3dbe
00000010: 9d5c 08bd 317d 95be a701 85c1 c57c 6d3e
00000020: 754f 6fc1 3301 5cbf d338 8ebf 9aa0 9bc0
00000030: f5c6 a9bd b0ca f83f 73e5 a0bf b9ea eabe
00000040: c9e2 9fbd a632 9dbc eb7b 93bf a071 963f
00000050: ae4a 63c1 c535 c9bf 879e 44bd 0a6d 1fbd
00000060: f1c8 a9c0 0c67 6bbe 48d6 6abd 1e6f 6fc1
00000070: 8f80 f5be c8c2 e4be 4fe4 08c0 1155 78bd
-0.07379723 -3.1344247 -1.5423889 -0.18512799 -0.033291448 -0.29197076 -16.625807 0.23192127
-14.956899 -0.8593933 -1.1111091 -4.8633547 -0.08289901 1.9436855 -1.2570022 -0.45882204
-0.07806928 -0.01918919 -1.1522192 1.1753426 -14.205732 -1.5719534 -0.048002746 -0.038922347
-5.305779 -0.22988528 -0.05733326 -14.964628 -0.47949645 -0.44679856 -2.1389349 -0.060628

decoder.2.weight f4 [32, 32, 3, 3]
00000000: e8f4 163d a437 783d 2219 6a3d 4f6f e43d
00000010: 6dc3 853d c9a5 f13d 8768 843c fff5 983c
00000020: 62ad 063d 72e9 f6c0 d4be 36c1 b6f4 44c1
00000030: 61d4 58c2 2234 4940 e204 bbc0 d62a 5dc2
00000040: a9a2 66c1 7b9b 36c1 3feb bf3d b707 c63e
00000050: acaa da3e b027 c43c 9619 133f 6f72 653e
00000060: 123a ae3e cf9c 0a3f 4ebc 2a3e be17 3ec1
00000070: acdd 86c2 2150 f8c0 0c30 81c1 a193 18c1
00000080: 1f75 f6c0 dd7c 02c2 a375 e3c1 77ce 68c1
00000090: 12ed d23b e918 e23d 7b3f ac3d 65a0 d13d
000000a0: 0d98 a43d 4d2e d53d 5cb9 223d ba7f 5d3d
000000b0: a63c c33d 6708 033d 5246 9c3d 07f4 04bb
000000c0: 73ce af3d 578e 6e3b 4a61 9fbd 81a8 913d
000000d0: c684 633c 9113 75bc f026 2ac0 1cb0 a5c0
000000e0: 8724 65bf 7c64 833f b17e 36c0 6838 80bf
000000f0: 0285 613f a49d 08c0 5138 e1be c5b2 b7c1
00000100: 00ca 8d3f 05ce cac2 eec1 1fc2 d23a 373e
00000110: d2d0 89c0 b477 e9c1 7fdb 7dc0 9ce4 0ec0
00000120: 62a5 dbbf a5b0 5fc0 176e fabe 35cd 413d
00000130: 5889 4fbf 9c2a 11bf c7ff 02c0 61dc 2fbf
00000140: 66e7 8bbf 0b11 83bf 7eb6 74bf 51dd b8bf
00000150: e33f b6be 2822 e4be 2135 4cbf 9a9f 6cbf
00000160: b9ea 9dbf ea3a 4fbf 6822 6bbe 17b6 09bf
00000170: 23ae 15be cb75 96be 172c e8be c5b7 f5bd
00000180: 8fc8 31bf f23f 17bf dba7 e0be 6950 75bf
00000190: b692 05c1 db24 99c0 ea09 1abf 7807 873e
000001a0: 7abf 4dc0 182c 46c2 0a73 8fc0 09d8 973e
000001b0: 5223 e83d 9dda a63d 7e01 3c3d b91d 823d
000001c0: d8ff 963d 37e9 ce3d 29af 593d 4b57 9e3d
000001d0: 76a3 703d c839 b8be 644e 75bf 2536 52bf
000001e0: 5ade dabf f981 65bf 49ba 1dbf 40bd 17c0
000001f0: 346b 463e bc84 863c 1c15 79c0 52a8 19c2
00000200: f14b f9c0 6557 a83d f637 25c0 c2bc b8c0
00000210: 2e43 4bbf 6fcd 23c0 ba77 8fc0 fcc1 de3e
00000220: 3015 913e 3623 093f 17cb 6d3f c3e3 753f
00000230: 4f2e 493f 107f 743e e7a9 3f3f 764b 983f
00000240: bce0 f03c d22d 793d 199a ae3d 9c20 b93d
00000250: f3c2 b23d c98f c83d e827 ab3d 5acc 9f3d
00000260: 4fb8 013d 6ee5 cb3e f304 1e3f ea3a 973f
00000270: 5eb5 1b3f f411 ee3e 1db4 d33e 5902 bcbe
00000280: 1259 fcbd f66f dabc 022d 6abf 1bca bebf
00000290: 149b 8cbf f10a 3abf 7693 80bf e4ba f2bf
000002a0: 56d1 a9bf 265e 6abf 38fd 7cbf 1c5d 8abe
000002b0: a9a9 6d3d 8b21 043e 63e4 f5be bba6 803d
000002c0: 57b9 e4bd e057 86be a3a6 003f 2207 143d
000002d0: 46e3 8f3f a4fc 223f 85c8 dabf 4634 8dbf
000002e0: 1277 703f f254 203f 9f64 4b3f 9c50 66c0
000002f0: 506f ad3e 35f0 a7bf 5552 513f f2f1 04c0
00000300: 8627 d83f 0c42 01be 62fb 1cbf c74d 92c0
00000310: 1776 a6bf edd2 613e 5cee e03c 0095 c83c
00000320: 7ecb 343d 9b3c c93c 12b3 5b3d b06c d53d
00000330: df1b 583c e399 c33d 46fb df3d 2332 b93d
00000340: 511c 1d3d 1082 fabb 74e4 2c3c a4fa 103d
00000350: b441 b03c 3a32 ad3d b46c 063c 1b27 b33d
00000360: ab75 b93e 6f9f df3e f203 563f 1ca7 523f
00000370: 172b 3a3f 8d98 333f a725 01c0 06df d7be
00000380: 75ee d33e 3572 053e 967e 273d a3fc 9a3d
00000390: 32b1 9a3d 6844 6e3d 453e 903d 4938 163d
000003a0: 6abc 83ba 5120 4d3d 337a fec1 b128 c2c0
000003b0: af6d 6d40 7743 bfbf dc69 a6bf c3c8 1740
000003c0: f087 96bf d574 85c0 8b7e 4a3f 8711 39bf
000003d0: d5d3 f0bf beac 88bf 52ec 1bc0 a06b a5bf
000003e0: 11e5 24be d187 4fc2 a001 ebbf ace0 aabd
000003f0: 5bed 7abd 26df 0bbe f6e4 06be 95d1 9dbd
0.036854655 0.060599938 0.057152875 0.11154043 0.06531415 0.11799199 0.016163124 0.018671988
0.032880194 -7.7159967 -11.421589 -12.309744 -54.2074 3.143807 -5.844346 -55.291832
-14.414712 -11.412959 0.093710415 0.3867776 0.42708337 0.023944706 0.57460916 0.22406934
0.3402868 0.5414552 0.16673395 -11.880796 -67.43295 -7.7597814 -16.14846 -9.536042
-7.701797 -32.621937 -28.43244 -14.550406 0.0064369524 0.110399075 0.084105454 0.10235671
0.08036814 0.10409222 0.039727554 0.054076888 0.09533052 0.031990435 0.076306 -0.0020287053
0.08584299 0.003640076 -0.07782228 0.07112218 0.013886636 -0.014958278 -2.6586266 -5.1777477
-0.8950886 1.026504 -2.8514826 -1.0017214 0.8809358 -2.1346216 -0.43988279 -22.96229
1.107727 -101.40238 -39.939384 0.17893532 -4.3067408 -29.183449 -3.966522 -2.2327032
-1.7159846 -3.4951565 -0.48912117 0.04731484 -0.81068945 -0.5670564 -2.0468614 -0.68695647
-1.0929992 -1.0239576 -0.9559096 -1.444254 -0.35595617 -0.4455731 -0.7976857 -0.9243103
-1.2337257 -0.8094927 -0.22962344 -0.5379347 -0.14617209 -0.29386744 -0.45346138 -0.11997942
-0.69446653 -0.5908195 -0.43878064 -0.9582582 -8.348318 -4.785749 -0.6017138 0.26372886
-3.2148118 -49.54306 -4.482793 0.2965701 0.11334862 0.08147166 0.04589986 0.063533254
0.07373017 0.10103076 0.05314556 0.077314936 0.05874964 -0.35981584 -0.9582274 -0.8211387
-1.7099106 -0.8965145 -0.61612374 -2.370926 0.19376832 0.016420715 -3.8919134 -38.414375
-7.79052 0.08219794 -2.5815406 -5.7730417 -0.79399383 -2.5594137 -4.483365 0.43507373
0.28336477 0.5356935 0.92888016 0.9605066 0.78586286 0.23876595 0.74868625 1.1898029
0.029404037 0.060834713 0.085254855 0.09039423 0.0872859 0.0979305 0.08357221 0.07802649
0.03166991 0.39823478 0.617263 1.1814854 0.6082362 0.46498072 0.41348353 -0.3672054
-0.12321676 -0.026664715 -0.91474926 -1.4905428 -1.0984826 -0.72672945 -1.0045002 -1.8963284
-1.3267009 -0.9154991 -0.9882388 -0.27024162 0.05802313 0.1290342 -0.48025808 0.06281801
-0.11168163 -0.26238918 0.5025427 0.036139615 1.1241233 0.6366675 -1.7092444 -1.1031578
0.93931687 0.62629616 0.7945041 -3.59867 0.33873987 -1.312018 0.81766254 -2.0772672
1.6887062 -0.12622851 -0.6132108 -4.5719943 -1.3004788 0.22053118 0.027457409 0.024485111
0.044139378 0.024565032 0.05363757 0.10421121 0.013190239 0.09550836 0.109365985 0.09042766
0.038357083 -0.007644899 0.010552514 0.03539528 0.021515705 0.084568456 0.008204628 0.08747693
0.36222586 0.43676326 0.8359977 0.8228624 0.72722 0.7015465 -2.017923 -0.4216234
0.41392866 0.13031848 0.040892206 0.07567718 0.075533286 0.058170706 0.07043127 0.03667477
-0.0010050659 0.050079647 -31.809668 -6.067467 3.7098196 -1.4942464 -1.3001056 2.3716285
-1.1760235 -4.1705117 0.7909934 -0.7229237 -1.8814646 -1.0677717 -2.4362988 -1.292347
-0.16103007 -51.882633 -1.8359871 -0.08343634 -0.061261516 -0.13659343 -0.13173279 -0.0770599

decoder.2.bias f4 [32]
00000000: 1084 0b40 e434 7ec0 5924 f8c1 e5bd 6bc1
00000010: b09c 9cbe 315b f4bc ff76 b2bf d5d6 07bf
00000020: cd9f 7dbe ab82 9440 eaed 06c1 7486 d9bf
00000030: e7d5 56c2 44bf 9d3f 1fca 04c2 0c9f 8fc1
00000040: 111a 2abf 2dd9 1fc0 2ae1 f3bf cbe5 e7bf
00000050: 643f b73e b9a7 30bf 6f79 0fc1 c908 a5be
00000060: d25f d7c0 2b1c 3841 c8e9 07c2 8b6c 0740
00000070: 4dcb 12c0 f6a7 9140 7c30 02c1 4f34 9cc0
2.1799355 -3.9719782 -31.017748 -14.733861 -0.30588293 -0.02982864 -1.3942565 -0.5306218
-0.2476799 4.6409507 -8.4330845 -1.6994157 -53.70889 1.2323995 -33.197384 -17.95266
-0.66446024 -2.4976304 -1.905309 -1.8117002 0.3579055 -0.69005924 -8.967147 -0.32233265
-6.730447 11.506877 -33.978302 2.116 -2.2936585 4.551753 -8.136837 -4.8813853

decoder.4.weight f4 [32, 1, 2, 2]
00000000: eef5 07be 1dec 0cbe b326 01be b074 06be
00000010: 5c20 9a3d ece0 973d 2f69 953d 6d3f 943d
00000020: 9b69 d6bd 41a9 d6bd fb0e d7bd f6e7 d6bd
00000030: 969e a7bd 9e06 abbd 9797 a4bd 3708 a7bd
00000040: f947 acbd a4c0 a43e 8e01 5a3e 76de 5fbe
00000050: 2826 423d 45b9 4a3d 8a14 453d 774c 4c3d
00000060: e456 8f3e 3966 8d3e 0760 8f3e dd13 8e3e
00000070: cb48 4bbc af54 863e d11b 31bd 6b72 c33e
00000080: 6de1 a63e e264 fbbe 6e05 6c3e 7d0e 163e
00000090: c4ea a3bd 885b a5bd 9789 aebd 612e aebd
000000a0: a5d5 81bd 9a14 74bd 6e10 86bd 7df1 7cbd
000000b0: 6386 bcbd 4a09 b6bd 7eed b9bd 9d44 b7bd
000000c0: 8ad8 51bd ec43 4dbd f730 44bd a157 47bd
000000d0: 1b3c 47bd f635 54bd e48f 3cbd a5e1 50bd
000000e0: b2b2 50bd daa1 4cbd ca11 56bd 8410 4ebd
000000f0: 0a82 843d 75d8 9d3d 7c4b 813d 4538 a23d
00000100: 7621 843d a994 cd3d ed76 82be ae22 98be
00000110: 7baf 77bd 4161 88bd fdd8 79bd 1ce8 8fbd
00000120: 27c5 993d ccab 9d3d 2dd5 943d 2711 993d
00000130: 839e 86bd 569d 86bd cc39 87bd c20f 87bd
00000140: 21dc 403d e122 513d 63f0 483d 93b9 513d
00000150: 6a91 9d3d a0f5 983d 8302 9b3d 2772 963d
00000160: 20c3 6cbd 9497 67bd 0ac9 6fbd 3d1d 70bd
00000170: cea6 bfbc ae75 79be 2e4b fa3e d5de 8dbe
00000180: e40f e6bd 3283 e0bd 1e6c e9bd 222a e5bd
00000190: 36d6 513d d771 523d 2f69 4f3d 0316 513d
000001a0: dc49 39bd d349 3abd 1e23 40bd ec2a 3bbd
000001b0: 3512 243e 97a6 1f3e b818 293e 901f 243e
000001c0: 1eb4 09be 6aeb 08be f0fe 06be ba70 05be
000001d0: c074 24be d0ae 28be 55a3 22be 366a 27be
000001e0: 043b 74bd 1883 79bd 4470 73bd 0a9c 77bd
000001f0: 937e b33d 9019 b33d 7fcc b93d d9df b93d
-0.13277408 -0.13761945 -0.12612419 -0.1313045 0.07525703 0.07415947 0.07295453 0.0723866
-0.104693614 -0.10481501 -0.10500904 -0.10493462 -0.08184545 -0.083508715 -0.08036726 -0.08155864
-0.08412165 0.32178223 0.21289656 -0.21862206 0.04739967 0.049493093 0.04811529 0.04987761
0.2799598 0.27617052 0.2800295 0.2774953 -0.012407492 0.26236483 -0.04323942 0.3817323
0.3259386 -0.49100405 0.23048946 0.14653964 -0.08003762 -0.08074099 -0.08522337 -0.0850494
-0.063395776 -0.05958996 -0.065461025 -0.06175374 -0.0920532 -0.088884905 -0.09078501 -0.08948634
-0.0512319 -0.050113603 -0.04789826 -0.048667554 -0.048641305 -0.051809274 -0.046035662 -0.05099644
-0.050951667 -0.04995904 -0.05226306 -0.05030872 0.064701155 0.077073015 0.063132256 0.07920889
0.06451695 0.1003812 -0.25481358 -0.29713959 -0.060470086 -0.06659175 -0.06099795 -0.07026693
0.07508307 0.07698783 0.072672226 0.07473975 -0.065732025 -0.06572978 -0.06602821 -0.065948024
0.04708493 0.051058654 0.049057376 0.051202368 0.07693751 0.07468724 0.075688384 0.073459916
-0.057803273 -0.05654104 -0.058541335 -0.058621634 -0.023394968 -0.24361297 0.48885483 -0.2770907
-0.112335 -0.109625235 -0.11397575 -0.11189677 0.051229678 0.051378097 0.05063742 0.051046383
-0.045236453 -0.04548056 -0.04690849 -0.04569523 0.1602257 0.15590893 0.16513336 0.16027665
-0.13447616 -0.13371053 -0.13183188 -0.13031283 -0.16060162 -0.16472936 -0.15882619 -0.1634911
-0.059626594 -0.060916036 -0.059433237 -0.060451545 0.087643765 0.0874511 0.09072208 0.09075899
