Segmentation_UNet_Transformers/unet_model.pth (torch, 454457 bytes, 9 tensors)

encoder.0.weight f4 [64, 3, 3, 3]
-0.5919726 -0.62906575 -1.5975801 -0.4615123 0.84039694 0.079836205 -0.025996393 0.41365612
1.253655 -0.52064914 -0.7543548 -1.5240352 -0.48750293 0.57229775 -0.1571191 0.071240336
0.29821616 1.1549398 -0.43170166 -0.786261 -1.2500055 -0.65379936 0.64803374 -0.19446595
0.075730756 0.18898787 1.1802453 -1.3853854 0.75392646 -0.54501873 0.528288 -0.3155877
-0.023804776 0.10710578 0.28822848 -0.65485764 -1.4858977 0.8579733 -0.26118836 0.52220386
-0.21256475 -0.20389931 -0.21115299 0.47502276 -0.62883663 -1.4833853 0.5931298 -0.326914
0.50920403 -0.2156412 0.12975399 -0.10105099 0.5174067 -0.83585167 -0.8902881 0.8576353
-0.74026275 0.06607754 0.6864276 -1.2986543 -2.217318 1.6031414 0.42442968 -0.76374906
0.59548926 -0.93926656 0.2366225 0.9349808 -1.2298907 -2.2553222 1.6047715 0.58556163
-0.9065515 0.82605666 -0.78477156 0.37722299 0.91112596 -1.1377316 -2.1228557 1.5947362
0.37132612 0.47844264 -0.27346295 -0.33350286 0.18780054 0.31493697 0.33742583 0.5179599
-0.2642003 -0.010621657 0.7002635 -0.343093 -0.3831937 0.3044593 0.07758555 0.3463556
0.52873874 -0.012818673 -0.2615576 0.6313548 -0.03844181 -0.43957046 0.3150178 0.31521276
0.34405524 0.34252182 -0.079663955 -0.045964744 -0.7379082 0.054960374 1.2640597 -0.6324345
0.23999327 -0.7263292 0.3403065 -0.7373838 0.10042164 -0.83361673 0.1405112 1.1325427
-0.6711402 0.15903215 -0.5486089 0.36270845 -0.60260713 0.30046248 -0.7356793 0.2708247
1.2895708 -0.38449973 0.36965594 -0.4647747 0.17784469 -0.63016045 0.21452326 -0.36474368
-0.6155002 0.23181932 -0.60257757 0.63349175 0.6317418 1.356533 0.5503516 -1.7449663
-0.60847044 -0.82626736 0.32435805 -0.84984344 0.67568386 0.4450663 1.2674162 0.3993773
-1.6500708 -0.40789548 -0.60909873 0.3347951 -0.7817147 0.8240378 0.753448 1.2827609
0.52677834 -1.7572138 2.8109975 -0.19881982 -0.65498286 -0.18309794 -2.3738716 -1.8584192
-4.071639 -0.17741147 -4.575907 2.7583864 -0.25997472 -0.5787188 -0.22262259 -2.3284125
-1.6689745 -4.1211658 -0.18132545 -4.8770695 2.5473344 0.08332437 -0.62191576 -0.3302917
-2.3207655 -1.6723645 -3.9745421 -0.049242012 -4.794662 -0.8734219 -0.6430005 0.23497695
-0.20968445 0.30201858 -0.25253117 0.50299627 0.35871857 0.89231086 -0.6922166 -0.8986531
0.1436029 -0.38495505 0.030676356 -0.2260905 0.39104283 0.59825534 0.7255164 -0.86231214
-0.83228624 -0.07456848 -0.47631854 0.21846405 -0.14292169 0.37643662 0.47721615 0.93338466
0.12184982 -1.2844447 0.4342822 0.43923038 -1.1541836 0.82192004 0.6735752 -1.1696701
0.39160648 0.38398102 -1.0966858 0.61965525 0.15977308 -0.9626825 0.7355629 0.8734071
-1.089455 0.7331438 0.37738943 -1.070774 0.6706073 0.20158742 -1.1319213 0.6992898
0.7800158 -1.2766252 0.41328984 -1.1100099 -2.1787179 1.7954525 2.0768769 0.33538848
0.03557007 -0.6415725 -2.8664966 -0.63270706 -1.2709239 -2.2457337 1.7987908 2.136345
00000000: 848b 17bf 740a 21bf 817d ccbf 574b ecbe
00000010: 4124 573f 2a81 a33d 63f6 d4bc bcca d33e
00000020: c477 a03f 4349 05bf 651d 41bf 9613 c3bf
00000030: fc99 f9be 1b82 123f d4e3 20be 74e6 913d
00000040: caaf 983e 11d5 933f 0008 ddbe 6748 49bf
00000050: 2e00 a0bf 655f 27bf 8ae5 253f 1522 47be
00000060: ba18 9b3d 0986 413e 4712 973f 4f54 b1bf
00000070: 5301 413f 5986 0bbf e23d 073f b694 a1be
00000080: 3c02 c3bc 465a db3d af92 933e c0a4 27bf
00000090: e531 bebf 23a4 5b3f 7bba 85be 27af 053f
000000a0: 93aa 59be fbca 50be 7d38 58be 2f36 f33e
000000b0: 70fb 20bf 92df bdbf 5bd7 173f 4661 a7be
000000c0: 325b 023f 0cd1 5cbe 3bde 043e d2f3 cebd
000000d0: c474 043f 60fa 55bf ece9 63bf fd8d 5b3f
000000e0: dc81 3dbf a953 873d b8b9 2f3f 4e3a a6bf
000000f0: 8ae8 0dc0 bd33 cd3f d94e d93e 0f85 43bf
00000100: fc71 183f c673 70bf 2b4d 723e e75a 6f3f
00000110: 0f6d 9dbf 3357 10c0 2769 cd3f 5ee7 153f
00000120: c213 68bf 7378 533f cae6 48bf 5f23 c13e
00000130: 8d3f 693f 30a1 91bf dedc 07c0 5120 cc3f
00000140: 751e be3e 6ff6 f43e 5603 8cbe e3c0 aabe
00000150: c94e 403e 6b3f a13e 14c3 ac3e 0599 043f
00000160: 4345 87be 7506 2ebc 7844 333f e3a9 afbe
00000170: f731 c4be 17e2 9b3e 2ce5 9e3d 8555 b13e
00000180: 6c5b 073f 6905 52bc e1ea 85be 78a0 213f
00000190: 2975 1dbd 610f e1be 034a a13e 9163 a13e
000001a0: 0228 b03e 055f af3e db26 a3bd 8745 3cbd
000001b0: 8de7 3cbf 211e 613d b5cc a13f 3ae7 21bf
000001c0: ccc0 753e b6f0 39bf a73c ae3e 2fc5 3cbf
000001d0: dca9 cd3d e867 55bf 2be2 0f3e 29f7 903f
000001e0: d8cf 2bbf 53d9 223e a271 0cbf ecb4 b93e
000001f0: 7644 1abf 38d6 993e 7b55 3cbf 89a9 8a3e
00000200: a810 a53f 26dd c4be 8b43 bd3e f3f6 edbe
00000210: eb1c 363e 3252 21bf fcab 5b3e afbf babe
00000220: 6c91 1dbf 0b62 6d3e 8642 1abf 842c 223f
00000230: d5b9 213f e0a2 ad3f d8e3 0c3f 0e5b dfbf
00000240: b8c4 1bbf 4286 53bf 4212 a63e 578f 59bf
00000250: 9ef9 2c3f bbdf e33e b23a a23f 2e7b cc3e
00000260: 8535 d3bf add7 d0be e5ed 1bbf 436a ab3e
00000270: 741e 48bf 24f4 523f f8e1 403f 8231 a43f
00000280: f2da 063f 62ec e0bf 62e7 3340 6c97 4bbe
00000290: f5ac 27bf 077e 3bbe 83ed 17c0 aee0 edbf
000002a0: de4a 82c0 5aab 35be d56d 92c0 6789 3040
000002b0: 681b 85be ea26 14bf 2df7 63be b604 15c0
000002c0: f5a0 d5bf 97e0 83c0 61ad 39be f410 9cc0
000002d0: 8707 2340 f8a5 aa3d df35 1fbf fe1b a9be
000002e0: 6c87 14c0 0a10 d6bf e65e 7ec0 feb1 49bd
000002f0: df6d 99c0 9498 5fbf ae9b 24bf cc9d 703e
00000300: 85b7 56be 2ea2 9a3e c44b 81be 5dc4 003f
00000310: f6a9 b73e 7c6e 643f 1b35 31bf 210e 66bf
00000320: a30c 133e d418 c5be fb4c fb3c 4584 67be
00000330: c436 c83e 4327 193f 71bb 393f 7dc0 5cbf
00000340: b610 55bf 5cb7 98bd 06e0 f3be 0ab5 5f3e
00000350: 105a 12be 4dbc c03e ad55 f43e 4cf2 6e3f
00000360: 668c f93d af68 a4bf 3d5a de3e cee2 e03e
00000370: 4abc 93bf 5a69 523f 6d6f 2c3f c0b7 95bf
00000380: a580 c83e 2999 c43e 3360 8cbf baa1 1e3f
00000390: 8e9b 233e 5c72 76bf da4d 3c3f 9c97 5f3f
000003a0: 4373 8bbf 50af 3b3f 3039 c13e 1f0f 89bf
000003b0: ecac 2b3f ef6c 4e3e cce2 90bf a804 333f
000003c0: 1eaf 473f 7468 a3bf ba9a d33e ce14 8ebf
000003d0: 1d70 0bc0 63d1 e53f 8deb 0440 0ab8 ab3e
000003e0: ecb1 113d 183e 24bf ae74 37c0 17f9 21bf
000003f0: a2ad a2bf 1aba 0fc0 c73e e63f e0b9 0840

encoder.0.bias f4 [64]
0.14381602 0.6183416 -0.0030568251 -1.3193269 0.24428774 -0.79261196 0.26584303 -0.15292256
-0.06370453 -0.022106903 0.106319 -0.05174746 -0.05502404 0.10059022 -1.0109366 -0.31826746
-1.1251588 -1.3847045 0.47300655 0.46418098 -1.2894506 0.2533539 -0.16162801 0.051370766
-1.0156925 -0.024504228 0.6837283 -1.9288336 0.099231124 -1.3518746 0.5791506 0.7444971
0.6354834 0.28618002 -1.0815755 0.14351355 -0.16466168 0.046716623 -0.04290546 -0.97289014
0.4409767 0.1449194 0.045164514 0.06900003 0.008239185 0.40979138 0.8312927 -2.871224
-0.018673522 0.25966173 0.051217698 0.07067886 -0.017729767 0.106649205 0.5719019 0.4808823
0.24820937 -0.05731275 -0.15568447 0.6902308 -1.6615082 -0.0021309054 0.19919962 0.8051549
00000000: 8244 133e a34b 1e3f 0455 48bb b4df a8bf
00000010: 9126 7a3e 9ee8 4abf 941c 883e bb97 1cbe
00000020: 8577 82bd 8919 b5bc c7bd d93d 25f5 53bd
00000030: e360 61bd 3f02 ce3d 5f66 81bf f4f3 a2be
00000040: 3405 90bf ff3d b1bf ea2d f23e 21a9 ed3e
00000050: b80c a5bf 9ab7 813e d081 25be 276a 523d
00000060: 3602 82bf 17bd c8bc d108 2f3f 05e4 f6bf
00000070: b039 cb3d 3a0a adbf 3743 143f 5d97 3e3f
00000080: 0aaf 223f 3086 923e 1171 8abf 37f5 123e
00000090: 129d 28be ee59 3f3d a3bd 2fbd 540f 79bf
000000a0: b3c7 e13e c065 143e 6dfe 383d e34f 8d3d
000000b0: a6fd 063c 2dd0 d13e 99cf 543f 22c2 37c0
000000c0: 37f9 98bc 62f2 843e a6c9 513d 14c0 903d
000000d0: 043e 91bc e66a da3d 2a68 123f 3436 f63e
000000e0: 992a 7e3e c6c0 6abd c06b 1fbe f7b2 303f
000000f0: 4dac d4bf a9a6 0bbb fcfa 4b3e a21e 4e3f

encoder.2.weight f4 [64, 64, 3, 3]
1.5346123 -1.1649455 -0.5878089 -0.5835772 0.24452466 -0.0660755 -0.022330644 -0.36126748
0.4789023 -1.4367408 0.8270913 -0.34795734 -1.6672634 0.10135259 -0.53852296 -0.505057
-1.8091302 0.2738296 -0.3165545 0.85772574 0.79091597 1.2145828 -0.9290559 -0.2711821
2.420254 -1.6420231 0.3178549 -0.71041286 -2.455195 1.2591238 0.3019007 -0.58433414
-0.31359735 1.5538578 0.48753774 -0.02043017 0.9199205 -1.3083879 -1.5548985 0.79156625
0.7133537 -1.686896 -1.12883 -0.8337136 0.8205955 0.9082161 0.723473 -1.5787042
0.15420772 1.3435969 1.8366586 1.3213269 0.493666 2.6220665 0.93813443 0.2202644
1.3543168 0.9462543 -1.2144482 0.58265066 -4.537582 -2.1225646 -1.5948218 -0.9500671
-1.126848 -0.5332608 -0.014108084 0.11576445 -0.3364515 0.5206091 -0.17514694 0.095868625
-0.54709816 -0.23127979 0.8749643 0.56136906 -0.4143374 -1.2420304 0.08778237 0.9106392
1.5931891 1.4211588 2.4794972 0.30293703 -0.46944523 -4.469784 2.392981 2.6102097
1.899457 0.47337732 1.118538 0.1730463 1.7807865 -0.7604066 0.16951312 1.1799957
-0.5707828 0.9159377 1.280183 -0.5355969 -0.6054189 2.388705 0.7421256 -0.5186273
0.43451133 0.5531248 0.15308098 -0.757589 0.2263234 0.57687664 0.05663965 0.14027219
0.68120325 -1.5133907 0.7274234 -0.21438408 0.8260037 0.82829404 0.13014616 -1.1061177
-0.14895543 0.43636304 -1.4172742 -0.1711064 0.17177892 -1.7169579 0.7797349 -0.114539474
0.750371 0.6947773 -0.5267739 -0.045912202 0.11794037 0.5354687 -0.6404115 0.012443102
-1.016487 -2.0333047 -0.89047945 0.5913066 -1.8610737 -0.7973384 0.4955981 0.80806154
-0.2006588 -1.8959664 -1.0609233 0.92202926 0.9740338 -2.8760498 0.6984258 2.1710737
-0.20240358 1.3015925 0.47099382 0.19161056 -1.2860107 0.16197373 -1.0246352 0.64337844
1.0183973 -0.41642177 -0.032753695 -0.7007529 1.5725518 0.13388044 0.56146955 0.037232094
0.28387922 -0.9893595 -0.36940205 -0.6891781 0.24460062 -0.6973704 -0.7387718 -1.3433973
0.12040544 -0.38634735 0.4993704 -0.49727896 -2.3550382 -0.32018527 -0.56078476 0.494543
-0.40747637 -0.2672185 -0.82521784 -1.451625 -4.822463 0.052943878 0.29977596 -0.64236915
0.9435747 -0.28481677 1.0462554 0.5787541 -0.40284413 -1.090021 -0.15750886 -1.2196683
0.8096454 0.62156576 -0.46694088 -0.24268724 1.771165 0.7299512 0.19899936 -1.2122263
-1.901422 0.86888194 1.6490947 1.5313547 -0.76501334 -0.38880184 -0.1915251 -2.195233
0.40349978 -0.20342171 -0.1764092 1.4648778 -1.1042815 1.5678278 0.7255761 0.7306463
0.40474364 -0.68477917 -0.10853782 0.005080726 -1.0078042 -1.0804901 0.05428152 -1.3412371
-0.6669651 -0.3324081 0.20096791 -0.09700085 -1.1258683 -2.746117 -2.7940574 0.855256
-0.83340585 -0.016980894 -0.02653148 2.516974 -0.6853754 1.4515464 -1.0454993 0.9892914
-2.0476685 0.24138658 -0.27068427 -1.2426502 2.5504713 -2.9814568 0.2741834 -1.3407778
00000000: 2d6e c43f ef1c 95bf a57a 16bf 5165 15bf
00000010: ac64 7a3e 9752 87bd c1ee b6bc 0df8 b8be
00000020: af32 f53e 1fe7 b7bf 41bc 533f 7727 b2be
00000030: e368 d5bf f291 cf3d a4dc 09bf 6a4b 01bf
00000040: 9491 e7bf 6533 8c3e 6e13 a2be ea93 5b3f
00000050: 7879 4a3f 7377 9b3f 9cd6 6dbf 61d8 8abe
00000060: 71e5 1a40 d02d d2bf e1bd a23e 9edd 35bf
00000070: ea21 1dc0 f82a a13f bb92 9a3e ec96 15bf
00000080: d58f a0be d0e4 c63f 8c9e f93e 2c5d a7bc
00000090: e97f 6b3f 4179 a7bf ea06 c7bf 16a4 4a3f
000000a0: 599e 363f 35ec d7bf 807d 90bf 416e 55bf
000000b0: 8c12 523f da80 683f 8735 393f fb12 cabf
000000c0: a1e8 1d3e fcfa ab3f a117 eb3f 3d21 a93f
000000d0: cac1 fc3e f0cf 2740 9429 703f fe8c 613e
000000e0: 415a ad3f b93d 723f 0a73 9bbf 9828 153f
000000f0: df33 91c0 19d8 07c0 1f23 ccbf 9937 73bf
00000100: 8e3c 90bf c883 08bf 9825 67bc e915 ed3d
00000110: 5f43 acbe a346 053f b859 33be c556 c43d
00000120: a00e 0cbf 9cd4 6cbe a9fd 5f3f e2b5 0f3f
00000130: 0824 d4be dafa 9ebf 3ec7 b33d a71f 693f
00000140: 9fed cb3f 88e8 b53f 15b0 1e40 901a 9b3e
00000150: 205b f0be 7808 8fc0 9a26 1940 ad0d 2740
00000160: 6821 f33f 835e f23e 412c 8f3f 0d33 313e
00000170: d0f0 e33f 02aa 42bf d994 2d3e 190a 973f
00000180: d21e 12bf e57a 6a3f 09dd a33f e11c 09bf
00000190: bcfc 1abf 8be0 1840 f1fb 3d3f c2c4 04bf
000001a0: 4578 de3e 9699 0d3f 43c1 1c3e 5af1 41bf
000001b0: 52c1 673e 30ae 133f fafe 673d 83a3 0f3e
000001c0: 5663 2e3f c9b6 c1bf 6c38 3a3f 8087 5bbe
000001d0: fa74 533f 140b 543f 0945 053e 4495 8dbf
000001e0: c687 18be fa6a df3e 3e69 b5bf 8436 2fbe
000001f0: d0e6 2f3e 47c5 dbbf b59c 473f ac93 eabd
00000200: 5018 403f eddc 313f a8da 06bf 6f0e 3cbd
00000210: b98a f13d 7a14 093f 02f2 23bf 27de 4b3c
00000220: 3f1c 82bf aa21 02c0 76f6 63bf df5f 173f
00000230: aa37 eebf 5f1e 4cbf 09bf fd3e 1fdd 4e3f
00000240: 8079 4dbe 07af f2bf 56cc 87bf 1c0a 6c3f
00000250: 475a 793f 3311 38c0 09cc 323f dff2 0a40
00000260: e242 4fbe 959a a63f 1a26 f13e 8f35 443e
00000270: 009c a4bf 71dc 253e 3f27 83bf 73b4 243f
00000280: d85a 823f 3c35 d5be bd28 06bd 8b64 33bf
00000290: 6149 c93f f417 093e 78bc 0f3f ae80 183d
000002a0: 9e58 913e aa46 7dbf 4422 bdbe fa6d 30bf
000002b0: 9678 7a3e de86 32bf 2620 3dbf 71f4 abbf
000002c0: 2197 f63d 52cf c5be 7aad ff3e 599b febe
000002d0: f2b8 16c0 53ef a3be 978f 0fbf bd34 fd3e
000002e0: bea0 d0be ddd0 88be 7a41 53bf d9ce b9bf
000002f0: 9e51 9ac0 aedb 583d 3c7c 993e 4e72 24bf
00000300: 1d8e 713f 81d3 91be b2eb 853f 3b29 143f
00000310: 9641 cebe cf85 8bbf 014a 21be 171e 9cbf
00000320: ec44 4f3f ef1e 1f3f e012 efbe 0183 78be
00000330: 89b5 e23f 15de 3a3f 7dc6 4b3e 3b2a 9bbf
00000340: cc61 f3bf 0c6f 5e3f 8915 d33f 6e03 c43f
00000350: ead7 43bf 0911 c7be 281f 44be b37e 0cc0
00000360: 8697 ce3e c84d 50be 9da4 34be 1e81 bb3f
00000370: 1959 8dbf 95ae c83f 5bbf 393f a30b 3b3f
00000380: 8f3a cf3e b04d 2fbf 1449 debd 387c a63b
00000390: baff 80bf 804d 8abf 4d56 5e3d a8ad abbf
000003a0: 3abe 2abf 6531 aabe 88ca 4d3e 62a8 c6bd
000003b0: 741c 90bf 62c0 2fc0 d6d1 32c0 0ff2 5a3f
000003c0: 165a 55bf 841b 8bbc 8c58 d9bc 1a16 2140
000003d0: c374 2fbf 46cc b93f ecd2 85bf 3442 7d3f
000003e0: 000d 03c0 0b2e 773e 2197 8abe 290f 9fbf
000003f0: ec3a 2340 30d0 3ec0 c461 8c3e 9b9e abbf

encoder.2.bias f4 [64]
-1.9616565 -0.033092704 -0.8191702 -0.92000985 -1.2458947 -0.18319821 -0.5429377 -0.79305834
-0.624402 -0.4005255 -0.030015947 0.18013307 0.23615295 -4.2216763 -0.06492037 -0.69211113
0.0986743 -0.042888027 -0.06480734 -1.6219457 -0.038671765 -0.45293486 -0.107450366 -0.03259564
-1.3998411 -0.07284946 -0.6775543 -1.0592949 -0.019632777 0.6248582 -0.11003898 0.8187112
-2.4714565 0.16942282 -0.079051614 -0.12771271 -0.07589436 -0.024497509 -0.45002845 -0.24579886
-1.0794053 -0.42250428 -0.02448084 -0.8488324 -1.80053 0.4287344 -0.0846722 -0.06588425
0.15824018 -0.028199112 -0.042218797 -1.2789687 -0.013263563 0.1245093 0.08516181 -0.054590974
-0.18856907 -0.05482204 -0.24019068 -0.1325586 0.31567514 -0.53755367 -0.0073441532 -0.6462864
00000000: 8f17 fbbf 378c 07bd 23b5 51bf c485 6bbf
00000010: 7a79 9fbf 5098 3bbe f7fd 0abf df05 4bbf
00000020: cfd8 1fbf ae11 cdbe 01e4 f5bc ce74 383e
00000030: 14d2 713e f917 87c0 f9f4 84bd 322e 31bf
00000040: c015 ca3d 5bab 2fbd b6b9 84bd eb9b cfbf
00000050: 4966 1ebd 14e7 e7be f00e dcbd 0183 05bd
00000060: fe2d b3bf 1932 95bd 3374 2dbf fa96 87bf
00000070: ebd4 a0bc b5f6 1f3f 1e5c e1bd 0f97 513f
00000080: 582c 1ec0 2d7d 2d3e d0e5 a1bd 1fc7 02be
00000090: 816e 9bbd 00af c8bc 216a e6be b2b2 7bbe
000000a0: f429 8abf 7b52 d8be 0b8c c8bc 154d 59bf
000000b0: c477 e6bf 1383 db3e 9e68 adbd 52ee 86bd
000000c0: b709 223e d301 e7bc 9eed 2cbd 3fb5 a3bf
000000d0: 6a4f 59bc bbfe fe3d 5169 ae3d c99a 5fbd
000000e0: 4018 41be 138d 60bd 8cf4 75be 71bd 07be
000000f0: 2ca0 a13e 1e9d 09bf 39a7 f0bb 0773 25bf

decoder.0.weight f4 [64, 64, 3, 3]
-1.5614452 1.400782 -0.48386005 -1.9190098 0.9254568 -0.18697613 0.22693352 -0.65382063
0.5066782 -0.062530965 -0.04905315 -0.050179575 -0.046199877 -0.0034988762 -0.04595608 -0.018696923
0.0034239478 -0.0013942104 -0.6792073 -1.3464187 0.45731133 -1.3535672 -5.0433474 -1.3244976
-1.8201444 -1.0576499 1.2091053 -0.6883363 -0.12164313 -0.16282594 -0.94066644 0.34993687
0.00030585192 0.18790361 0.7390931 0.13072164 0.5183025 0.3751795 -0.4941768 0.03941975
-0.0691415 -0.6044154 -0.07918953 0.42608583 0.013403364 -0.16365027 -0.20257652 -0.14906539
-0.13043927 -0.4626104 0.03540995 -0.7107748 -0.337274 -0.71540534 -0.20868114 0.2930869
2.334164 -5.7071652 -0.057569567 -4.1620526 0.27938783 1.4587187 0.9811919 -0.417735
-0.6949615 -0.2780865 -1.437758 -0.07797889 -0.09463371 -0.6772874 -0.008123702 -0.30655766
-0.13801463 0.35031718 1.487541 -0.31700447 0.36751705 -0.12222496 -1.0888325 0.5231968
-0.45552504 -0.3356959 -0.5947113 0.037955318 0.30797145 -0.13435255 0.011672212 -0.23274937
-1.2486576 -0.046773262 0.06606919 -0.014440513 0.035142303 0.014684004 0.042362347 0.00068714697
0.008310534 -0.0009195466 -0.012272029 0.02875361 -0.07442165 -0.7758466 -0.425067 -0.8239554
0.12105403 -0.5132237 0.44926435 -0.015851066 0.707756 0.30064842 0.53860396 0.8217702
-0.4247763 -0.22776175 0.30527827 0.3103927 1.1600071 0.3795832 -0.49677044 -1.7240925
-0.54997045 -0.22224396 -0.52544147 0.90149194 0.39178514 -0.9435219 -0.026667453 -0.009384299
0.0015995684 -0.030030856 -0.005919373 0.015039748 -0.013700396 0.03681569 0.006833213 -1.1397424
1.0864148 -2.1446586 -0.2795751 -0.05463821 -0.08678249 1.0161566 -0.025510704 -0.3567051
-0.31289902 -1.0135128 0.3299962 -1.71208 0.7163904 -0.769094 -0.9658804 -0.97551715
-0.265107 -0.02052854 0.0020966185 -0.029779714 0.044909604 0.01577327 0.018061927 -0.0130487345
0.0011554576 0.05059094 -0.048068393 0.0023749778 0.004532173 -0.03264286 -0.03206033 -0.05998909
-0.05602314 -0.04104321 -0.0444124 1.8439181 -0.5097746 -2.9327354 2.3055532 0.62484807
-0.34408358 1.4251968 -0.19068484 -0.115422584 -0.30834737 -0.744985 0.41989675 -0.017628536
0.15603918 0.3576845 0.07211404 -0.2608969 0.09538576 0.46188587 -0.01413865 0.24229209
-0.35428503 0.21074677 -0.044377614 -0.23184684 -0.39403084 -0.44249424 0.9244656 0.3141435
-1.7600516 -0.67818147 -0.6750753 -2.6329496 -0.09623492 -0.95075035 -0.7484353 -0.15312935
-0.47214362 -0.14736405 0.24792613 1.2889403 0.7795759 -0.49340495 0.065505564 -0.28949705
-0.5076063 0.22357461 -0.13991709 -1.8079215 0.215809 -0.49139827 0.84249896 0.4700829
-0.8499022 0.0035136165 0.02015491 0.046995338 0.042932846 0.033527423 0.010449035 0.014693787
-0.032959335 -0.017810944 -0.4850645 0.48653063 0.29317832 -1.2983886 0.15741238 -0.30965468
-0.8364748 0.24063985 -0.03076769 0.45468506 -0.36269182 -0.08483366 -0.42491892 -0.5487159
-0.75804496 -0.14744966 -1.1861703 -0.43465248 0.043499853 0.030793253 0.05038901 -0.018270914
00000000: 70dd c7bf d34c b33f 81bc f7be 1da2 f5bf
00000010: bdea 6c3f ac76 3fbe 4361 683e ca60 27bf
00000020: aab5 013f 3c10 80bd f5eb 48bd 1989 4dbd
00000030: 153c 3dbd 674d 65bb 713c 3cbd 4a2a 99bc
00000040: 5064 603b f0bd b6ba 88e0 2dbf 7357 acbf
00000050: b624 ea3e b141 adbf 1a63 a1c0 2389 a9bf
00000060: 7efa e8bf 1261 87bf f6c3 9a3f cf36 30bf
00000070: 0920 f9bd d8bb 26be 84cf 70bf ed2a b33e
00000080: c05a a039 ce69 403e 3535 3d3f e5db 053e
00000090: 79af 043f 8717 c03e be04 fdbe 9b76 213d
000000a0: 0f9a 8dbd f8ba 1abf 1f2e a2bd ec27 da3e
000000b0: c999 5b3c f093 27be 3870 4fbe 99a4 18be
000000c0: df91 05be 45db ecbe 060a 113d 56f5 35bf
000000d0: 2daf acbe ce24 37bf 82b0 55be 7c0f 963e
000000e0: f162 1540 19a1 b6c0 11ce 6bbd 892f 85c0
000000f0: ec0b 8f3e 4bb7 ba3f 642f 7b3f 5de1 d5be
00000100: ffe8 31bf 5b61 8ebe 7408 b8bf 65b3 9fbd
00000110: 52cf c1bd b562 2dbf 4719 05bc 20f5 9cbe
00000120: b553 0dbe c65c b33e be67 be3f 694e a2be
00000130: 322b bc3e 1451 fabd dd5e 8bbf 3af0 053f
00000140: 943a e9be 55e0 abbe 003f 18bf 0977 1b3d
00000150: 6fae 9d3e b793 09be ce3c 3f3c da55 6ebe
00000160: 03d4 9fbf 5295 3fbd 494f 873d e797 6cbc
00000170: 60f1 0f3d 2d95 703c 2484 2d3d a721 343a
00000180: e828 083c ba0d 71ba 9f10 49bc b18c eb3c
00000190: 616a 98bd e29d 46bf 62a2 d9be beee 52bf
000001a0: 2deb f73d a162 03bf fa05 e63e 18da 81bc
000001b0: 7f2f 353f 97ee 993e f3e1 093f 885f 523f
000001c0: 477c d9be 603a 69be 6f4d 9c3e cbeb 9e3e
000001d0: 1d7b 943f bb58 c23e b258 febe 10af dcbf
000001e0: ddca 0cbf ec93 63be 5583 06bf 2dc8 663f
000001f0: 1098 c83e a78a 71bf b475 dabc 9ac0 19bc
00000200: 9ca8 d13a 4503 f6bc 4df7 c1bb 4669 763c
00000210: a077 60bc 0dcc 163d 25e9 df3b 14e3 91bf
00000220: a40f 8b3f 1642 09c0 7824 8fbe 51cc 5fbd
00000230: 05bb b1bd 6b11 823f d3fb d0bc 0da2 b6be
00000240: 4d34 a0be caba 81bf 43f5 a83e 7025 dbbf
00000250: 5c65 373f 58e3 44bf f043 77bf 7ebb 79bf
00000260: 1bbc 87be 782b a8bc 6c67 093b 96f4 f3bc
00000270: 22f3 373d f236 813c 9bf6 933c 5cca 55bc
00000280: b972 973a 7238 4f3d 5de3 44bd 84a5 1b3b
00000290: 9f82 943b 85b4 05bd b151 03bd 1fb7 75bd
000002a0: 8578 65bd ed1c 28bd c7e9 35bd 8205 ec3f
000002b0: 9780 02bf f0b1 3bc0 2f8e 1340 0bf6 1f3f
000002c0: b92b b0be d96c b63f e342 43be ad62 ecbd
000002d0: b5df 9dbe 56b7 3ebf b5fc d63e b869 90bc
000002e0: bcc8 1f3e 6c22 b73e 87b0 933d 4794 85be
000002f0: 9c59 c33d 4e7c ec3e cca5 67bc 6b1b 783e
00000300: d964 b5be 00ce 573e 4dc5 35bd 4269 6dbe
00000310: 69be c9be 9b8e e2be c7a9 6c3f 6bd7 a03e
00000320: 5f49 e1bf 4d9d 2dbf bcd1 2cbf 3f82 28c0
00000330: d016 c5bd 6064 73bf 7599 3fbf f1cd 1cbe
00000340: cfbc f1be 9ae6 16be 59e0 7d3e fffb a43f
00000350: 4992 473f 939f fcbe c827 863d f538 94be
00000360: 7df2 01bf bef0 643e 6d46 0fbe f969 e7bf
00000370: 09fd 5c3e 8e98 fbbe 03ae 573f b5ae f03e
00000380: 3193 59bf b444 663b e91b a53c 2f7e 403d
00000390: 5ada 2f3d 0d54 093d 6e32 2b3c 36be 703c
000003a0: 5e00 07bd 42e8 91bc 605a f8be 8b1a f93e
000003b0: 781b 963e 9931 a6bf b630 213e 0f8b 9ebe
000003c0: 3623 56bf 4b6a 763e 860c fcbc 7bcc e83e
000003d0: beb2 b9be 45bd adbd f98e d9be a578 0cbf
000003e0: 3c0f 42bf 0bfd 16be 6ed4 97bf c58a debe
000003f0: e72c 323d 2242 fc3c b564 4e3d e2ac 95bc

decoder.0.bias f4 [64]
-1.0477096 -2.8896487 0.24066193 -0.8551222 -1.0980847 -0.35151845 0.522838 0.0693768
-1.0711833 -2.7294533 0.20651858 -0.8486794 -1.0780631 0.5313614 -0.60519814 0.5197103
0.8473151 -0.88095856 0.15544601 0.17979218 -0.01595138 -0.08985505 -1.3244761 0.6024428
-2.4236042 0.9932208 -0.5706648 -0.7434739 -0.7541988 -2.0160458 -0.50600916 -1.6231494
-0.4786875 -0.082482606 -0.07966816 -0.5066218 0.752856 0.61102957 -0.3481046 -0.1039838
0.42221466 -0.097818255 1.5331175 -0.72208375 -0.7969933 -0.923311 -0.69096243 -2.4341106
0.48091635 -0.6099262 -1.698797 0.48415315 1.1528832 -2.8846958 -0.42389703 -0.25481096
0.36813852 0.88950956 -0.026573962 -1.3968353 -1.7384403 -1.2719512 -0.8255446 0.5392297
00000000: 591b 86bf 01f0 38c0 1570 763e 4ae9 5abf
00000010: 0a8e 8cbf 3afa b3be b6d8 053f 6c15 8e3d
00000020: 891c 89bf 5daf 2ec0 9b79 533e 0e43 59bf
00000030: f9fd 89bf 4d07 083f 44ee 1abf bc0b 053f
00000040: a4e9 583f 8086 61bf 3d2d 1f3e 711b 383e
00000050: 78ac 82bc ed05 b8bd 6f88 a9bf b139 1a3f
00000060: 551c 1bc0 b843 7e3f 1717 12bf 4e54 3ebf
00000070: 2c13 41bf e506 01c0 d189 01bf 5cc3 cfbf
00000080: 8716 f5be a4ec a8bd 0f29 a3bd f7b1 01bf
00000090: 2cbb 403f 6f6c 1c3f c43a b2be 75f5 d4bd
000000a0: 852c d83e f054 c8bd 323d c43f 7bda 38bf
000000b0: c107 4cbf 1c5e 6cbf eae2 30bf 78c8 1bc0
000000c0: ab3a f63e 2024 1cbf 2e72 d9bf ece2 f73e
000000d0: ad91 933f db9e 38c0 0809 d9be 9576 82be
000000e0: a77c bc3e e6b6 633f a3b1 d9bc 80cb b2bf
000000f0: 3685 debf 4ccf a2bf e456 53bf f50a 0a3f

decoder.2.weight f4 [64, 64, 3, 3]
0.32129568 -0.5055613 -0.47503623 0.13630696 -0.079511546 -0.42684093 0.1928461 0.38134742
0.10591982 0.38496366 0.12681808 0.30879712 0.88008004 0.6111627 0.7273131 -0.6312595
-0.23218231 -2.4322677 0.26666415 0.21820876 -0.29121566 0.20730858 0.2664125 -0.11839688
0.34688324 0.33177218 -0.009496409 -0.879156 -0.44339252 -0.28586727 -1.0503622 -1.0818862
-0.577131 -1.4786785 -1.3328197 0.15942939 -0.08325574 -0.09062355 -0.10419992 -0.45042002
-0.43030265 -0.05439611 -0.69521105 -0.16612263 0.16412963 -0.58318436 -0.507687 -0.5314506
-0.32591677 -0.3241684 -0.8341699 -0.5155764 0.40098977 -0.5534875 -0.015145868 -0.43344155
-0.76916337 0.18621667 0.3883227 0.3899098 0.60764253 0.07026863 -0.11988857 0.7096475
0.26584682 0.2722582 -0.029011216 0.48661086 -0.032486558 -0.43272695 -0.32451707 -1.109854
0.51428145 0.1585305 0.18690509 -0.9126988 -2.3630843 -0.78713614 -1.6451969 -2.7797422
-2.5369575 -2.2802086 -2.9778953 -3.4373384 -4.254374 -2.9681232 -2.7178314 -3.6236007
-3.265541 -3.7630928 -0.14627628 -0.19108263 -0.028604316 -0.76919764 -1.3155674 -0.64318347
-0.79571515 -0.4268221 0.07357407 0.82016885 0.07938033 0.43849573 0.6956017 -0.17645544
-0.4650114 1.0236156 -0.2930413 -0.51649445 0.10227922 -0.24805808 -0.3281615 -1.0359654
-0.9365554 -0.24855177 -1.0317142 -1.329202 -0.14697027 0.49314246 0.36604887 0.2204988
0.28953537 0.22698304 -0.086544394 0.08182233 -0.13624366 -0.044269826 0.36817864 0.33350334
0.24768683 0.27321106 -0.17436314 0.22483043 0.06304527 -0.3680078 0.21080747 -0.22500303
0.5353092 0.5285164 -0.6716993 -0.31906742 -0.04042507 -0.22375587 -0.099255085 -0.78653264
-0.26142988 -0.66005087 -1.1059978 -0.77892464 -0.7920143 -0.92659426 -1.6936032 -2.4519718
-4.6735926 0.37033248 0.4820806 0.38574755 -0.6189672 0.06132729 0.3266276 -1.8300499
-1.569664 -0.68575674 0.8248822 0.9731545 0.36635077 0.5808017 0.60380954 0.6622317
0.19018494 0.10586555 0.53181404 0.013247078 0.120285034 0.36652094 0.1784816 0.057395868
0.12311094 0.50067073 -0.7084729 -0.27497756 -0.013499738 0.003284102 -0.033903208 0.023033759
0.028360466 0.018516783 -0.015912175 -0.0041080466 -0.0227542 0.042136453 0.020982925 -0.018219793
0.027929582 0.026683241 0.014790005 0.0351289 0.04202288 0.031000061 -0.18231384 -0.16550551
0.17472923 -0.3489274 -0.28288162 -0.33010662 -0.86546355 -0.6338439 -0.4875346 -0.040707897
-0.121555336 -0.035533443 0.41331252 0.022588285 0.015767481 0.39088404 0.22313803 0.101391055
-0.22034062 -0.49775708 -0.29070807 -0.53414136 -0.40588897 -0.5608697 -0.12045492 -0.4876705
-0.13773982 0.19608963 0.12919445 -0.012999629 -0.082761265 0.27463722 0.22367051 0.15555495
0.2564648 0.25627676 0.47148913 0.47009152 0.753386 0.84360397 0.6984669 0.66566455
0.9242543 0.034315355 1.1628278 0.04086073 0.6646138 0.4564297 -0.07415924 0.5874891
0.5677742 -0.13259947 0.4626258 0.23711804 0.112183884 0.22624019 -0.025339253 0.633301
00000000: de80 a43e 776c 01bf f337 f3be 0d94 0b3e
00000010: f3d6 a2bd e58a dabe 7379 453e f83f c33e
00000020: 7eec d83d f519 c53e 99dc 013e a81a 9e3e
00000030: ed4c 613f 2975 1c3f 3131 3a3f 399a 21bf
00000040: 33c1 6dbe 46aa 1bc0 3488 883e 1e72 5f3e
00000050: 381a 95be b348 543e 3867 883e 107a f2bd
00000060: ae9a b13e 0bde a93e d496 1bbc 5e10 61bf
00000070: 5804 e3be 325d 92be 4572 86bf 3f7b 8abf
00000080: dbbe 13bf 5645 bdbf d699 aabf 7541 233e
00000090: fc81 aabd d798 b9bd c566 d5bd 749d e6be
000000a0: a150 dcbe 75ce 5ebd 5af9 31bf 0d1c 2abe
000000b0: 9911 283e 924b 15bf c6f7 01bf 260d 08bf
000000c0: 90de a6be 67f9 a5be 298c 55bf d1fc 03bf
000000d0: 884e cd3e 5bb1 0dbf 6026 78bc 0dec ddbe
000000e0: e4e7 44bf 95af 3e3e 3cd2 c63e 42a2 c73e
000000f0: 768e 1b3f 00e9 8f3d 2388 f5bd 75ab 353f
00000100: 131d 883e 6d65 8b3e eea8 edbc 0f25 f93e
00000110: a010 05bd 638e ddbe 1a27 a6be b20f 8ebf
00000120: f3a7 033f d255 223e 0c64 3f3e a1a6 69bf
00000130: c63c 17c0 c181 49bf d095 d2bf 4ce7 31c0
00000140: 835d 22c0 f0ee 11c0 d695 3ec0 5afd 5bc0
00000150: d523 88c0 bbf5 3dc0 f3f0 2dc0 13e9 67c0
00000160: a0fe 50c0 83d6 70c0 73c9 15be 2aab 43be
00000170: 9953 eabc 23ea 44bf 8364 a8bf aca7 24bf
00000180: fdb3 4bbf 6d88 dabe 01ae 963d 96f6 513f
00000190: 2892 a23d 8382 e03e f412 323f bcb0 34be
000001a0: f915 eebe d605 833f 8209 96be fb38 04bf
000001b0: c577 d13d f002 7ebe c904 a8be 849a 84bf
000001c0: 18c2 6fbf 5b84 7ebe 360f 84bf 4b23 aabf
000001d0: 607f 16be 2b7d fc3e c26a bb3e 70ca 613e
000001e0: fb3d 943e 3e6e 683e 303e b1bd 7792 a73d
000001f0: 7583 0bbe 4754 35bd e981 bc3e f3c0 aa3e
00000200: 9ea1 7d3e 52e2 8b3e 408c 32be f339 663e
00000210: e11d 813d 856b bcbe eadd 573e 3267 66be
00000220: 060a 093f da4c 073f 7cf4 2bbf ce5c a3be
00000230: c294 25bd 4220 65be 4046 cbbd 345a 49bf
00000240: 23da 85be 18f9 28bf 5691 8dbf 9b67 47bf
00000250: 73c1 4abf 4835 6dbf fdc7 d8bf 1bed 1cc0
00000260: 128e 95c0 389c bd3e 45d3 f63e b480 c53e
00000270: a274 1ebf 5332 7b3d bc3b a73e 133f eabf
00000280: c0ea c8bf c18d 2fbf 7b2b 533f a720 793f
00000290: 5492 bb3e 6caf 143f 4393 1a3f 0488 293f
000002a0: d7bf 423e 0ad0 d83d f724 083f 460a 593c
000002b0: 0058 f63d a2a8 bb3e e1c3 363e ee17 6b3d
000002c0: 9721 fc3d f52b 003f 7b5e 35bf dcc9 8cbe
000002d0: 012e 5dbc 173a 573b 17de 0abd 4bb1 bc3c
000002e0: 3554 e83c 82b0 973c 405a 82bc cb9c 86bb
000002f0: 0467 babc 4697 2c3d 62e4 ab3c ad41 95bc
00000300: 94cc e43c d096 da3c c751 723c 52e3 0f3d
00000310: 2f20 2c3d d7f3 fd3c 7bb0 3abe 477a 29be
00000320: 38ec 323e 9da6 b2be dcd5 90be bc03 a9be
00000330: 058f 5dbf 9843 22bf 239e f9be 53bd 26bd
00000340: 01f2 f8bd 848b 11bd b39d d33e 110b b93c
00000350: ce2a 813c f421 c83e 4c7e 643e 1da6 cf3d
00000360: f9a0 61be 04da febe b0d7 94be 7dbd 08bf
00000370: aed0 cfbe 2895 0fbf 12b1 f6bd f3af f9be
00000380: ab0b 0dbe b8cb 483e 8d4b 043e 65fc 54bc
00000390: bd7e a9bd 409d 8c3e e209 653e cc49 1f3e
000003a0: 5b4f 833e b536 833e 0667 f13e d6af f03e
000003b0: e8dd 403f 6ef6 573f bace 323f fe68 2a3f
000003c0: ee9b 6c3f 428e 0c3d 8bd7 943f 955d 273d
000003d0: 2124 2a3f 27b1 e93e cde0 97bd b065 163f
000003e0: a659 113f 28c8 07be 4add ec3e 12cf 723e
000003f0: aac0 e53d 82ab 673e 4494 cfbc 0420 223f

decoder.2.bias f4 [64]
0.63027245 -0.6662949 0.96677613 1.4896888 5.0393815 1.0666733 0.6435402 -1.927015
0.9029843 -2.259845 -0.28982654 3.714717 3.479024 0.25500625 1.8349926 1.4364495
2.2027884 -0.5319882 4.785561 -1.0169361 1.2130957 0.005889706 -2.0508468 4.7816453
2.6783004 -0.06123777 0.878097 1.2230742 0.08352991 0.73710805 0.38262734 0.37218362
0.7750863 2.1330643 2.5394573 -0.9285859 0.43867522 -0.79492474 -0.52600336 -1.0299839
3.275096 2.6102843 1.657511 1.0186467 3.9115486 -1.7871113 0.72059804 1.3282602
1.2870945 0.9827196 3.3870745 -0.47947156 3.205246 -3.6350505 0.04226507 2.94587
1.4346497 4.409128 -0.09645364 3.5896938 -0.59740126 -3.9394045 1.8618735 2.1583772
00000000: 8959 213f 4d92 2abf a47e 773f 1fae be3f
00000010: 9d42 a140 c088 883f 0dbf 243f 6da8 f6bf
00000020: fb29 673f 4da1 10c0 2564 94be ecbd 6d40
00000030: 54a8 5e40 2e90 823e 0ae1 ea3f 94dd b73f
00000040: 7cfa 0c40 6130 08bf 5123 9940 f62a 82bf
00000050: b846 9b3f 6ffe c03b 1341 03c0 3d03 9940
00000060: 4669 2b40 75d4 7abd f7ca 603f b28d 9c3f
00000070: bb11 ab3d 1db3 3c3f bbe7 c33e da8e be3e
00000080: 0e6c 463f 2084 0840 7886 2240 ceb7 6dbf
00000090: 0a9a e03e 3080 4bbf 28a8 06bf 83d6 83bf
000000a0: 2c9b 5140 e60e 2740 5229 d43f 0463 823f
000000b0: d056 7a40 10c0 e4bf 1d79 383f 6e04 aa3f
000000c0: 83bf a43f 8393 7b3f d4c5 5840 4c7d f5be
000000d0: c022 4d40 aba4 68c0 231e 2d3d 2289 3c40
000000e0: 9aa2 b73f 9417 8d40 7c89 c5bd 8bbd 6540
000000f0: 4aef 18bf 341f 7cc0 df51 ee3f da22 0a40

decoder.4.weight f4 [64, 1, 2, 2]
0.07888417 0.08078013 0.079459816 0.08105325 -0.09097429 -0.09187427 -0.100735046 -0.10180978
-0.06978974 -0.06803053 -0.071830526 -0.070284255 0.101192005 0.10153863 0.10153637 0.10100163
0.10596421 0.10596119 0.10689067 0.10636602 0.08905868 0.0901877 0.088839024 0.08911875
0.12723047 0.12621984 0.12755072 0.12634262 -0.058930002 -0.05809438 -0.060203843 -0.059320994
-0.058192033 -0.05789096 -0.05924547 -0.058905225 0.07291445 0.09096053 0.084720306 0.10315611
-0.065146774 -0.06575218 -0.0644034 -0.064447455 0.074157394 0.07571593 0.07226828 0.07409702
0.07474653 0.07419932 0.07552364 0.07450707 0.06825556 0.07027187 0.07459879 0.077607855
0.08825139 0.09056143 0.086049795 0.089220226 -0.054298576 -0.054949477 -0.055035293 -0.0551828
0.08294052 0.08363395 0.08141664 0.082084715 -0.055458587 -0.056430325 -0.05486962 -0.05582279
0.097374976 0.0986345 0.09676348 0.097667485 -0.04942975 -0.049774062 -0.04835338 -0.048342895
0.058523826 0.058404762 0.058819074 0.058473527 0.09843935 0.09603984 0.096955724 0.09248228
-0.058939088 -0.05947792 -0.0583517 -0.058799088 0.07697848 0.07700182 0.07740365 0.07696749
0.06654062 0.06504639 0.06322926 0.061892483 0.081794366 0.08061379 0.08296418 0.0815469
0.07786563 0.078587435 0.078212194 0.07845188 -0.03890775 -0.039691184 -0.038415413 -0.039102893
-0.048165694 -0.049059868 -0.048237022 -0.048725702 0.07961048 0.07665602 0.08095837 0.07749617
0.053803157 0.056194823 0.054840636 0.0572329 0.05720747 0.057273187 0.059165772 0.059116747
0.1609217 0.16110265 0.16286589 0.16065982 0.087448515 0.08670435 0.08715592 0.086408876
-0.041108694 -0.0410609 -0.041618306 -0.041296437 0.06435704 0.06356766 0.06525343 0.06406812
-0.07918376 -0.07976952 -0.08154549 -0.08213228 0.08319488 0.10157862 0.07707621 0.09578776
-0.12645014 -0.12799089 -0.12651147 -0.12802587 -0.044257276 -0.042998623 -0.04433053 -0.043055017
0.08117234 0.08253426 0.08124211 0.08242341 0.079023145 0.07845174 0.078998834 0.07831202
0.067119546 0.06666544 0.064971566 0.064173095 0.060874008 0.06300542 0.05940002 0.061346494
0.09245242 0.09196875 0.0916439 0.09089524 0.16678765 0.1675572 0.14117916 0.14268038
0.078685276 0.078749076 0.07935508 0.07931827 -0.038009528 -0.038057037 -0.03766321 -0.037536666
0.07033764 0.07045191 0.069935694 0.06978659 0.13948226 0.1391221 0.14098465 0.14069727
0.067189865 0.06821345 0.06767765 0.068475634 -0.29169568 -0.20558532 -0.25360703 -0.16935924
0.11849581 0.11979248 0.12184082 0.12134943 0.12098779 0.13835981 0.13725874 0.1515234
-0.0509739 -0.050826665 -0.051215976 -0.05085055 0.07437045 0.07394509 0.07484307 0.074204035
-0.038525075 -0.038179897 -0.038963046 -0.03870984 0.100142464 0.09951491 0.100783974 0.099952444
0.090035014 0.09188932 0.08987599 0.091366 -0.042189267 -0.043154772 -0.042446822 -0.043189805
-0.10950837 -0.11040748 -0.120369814 -0.123320855 0.08101808 0.09269183 0.08354249 0.09485705
0.061472185 0.057246402 0.061351545 0.057181448 0.054702077 0.05392819 0.054553818 0.053729594
00000000: 068e a13d 0e70 a53d d4bb a23d 3fff a53d
00000010: bb50 babd 9428 bcbd 2d4e cebd a581 d0bd
00000020: eced 8ebd 9753 8bbd e21b 93bd 31f1 8fbd
00000030: c13d cf3d 7cf3 cf3d 4df2 cf3d f1d9 ce3d
00000040: c403 d93d 2e02 d93d 7fe9 da3d 6ed6 d93d
00000050: 6664 b63d 54b4 b83d 3cf1 b53d e483 b63d
00000060: b448 023e c63f 013e a89c 023e f65f 013e
00000070: 9660 71bd 5ff4 6dbd 4e98 76bd 92fa 72bd
00000080: c55a 6ebd 121f 6dbd 61ab 72bd 9b46 71bd
00000090: 2c54 953d 8449 ba3d d781 ad3d 8343 d33d
000000a0: ac6b 85bd 14a9 86bd eee5 83bd 07fd 83bd
000000b0: d5df 973d f410 9b3d 6401 943d 2ec0 973d
000000c0: b514 993d d0f5 973d 23ac 9a3d 2a97 983d
000000d0: 92c9 8b3d b3ea 8f3d 40c7 983d def0 9e3d
000000e0: 25bd b43d 4578 b93d e03a b03d 18b9 b63d
000000f0: 2f68 5ebd b412 61bd b06c 61bd 5c07 62bd
00000100: b8dc a93d 4748 ab3d c4bd a63d 081c a83d
00000110: 8b28 63bd 7c23 67bd f7be 60bd 70a6 64bd
00000120: 886c c73d e200 ca3d ee2b c63d e405 c83d
00000130: d976 4abd e3df 4bbd 320e 46bd 3303 46bd
00000140: aeb6 6f3d d539 6f3d 45ec 703d f081 6f3d
00000150: 929a c93d 89b0 c43d b990 c63d 5a67 bd3d
00000160: 1d6a 71bd 1f9f 73bd 3102 6fbd 50d7 70bd
00000170: e5a6 9d3d 21b3 9d3d ce85 9e3d 22a1 9d3d
00000180: 7346 883d 0b37 853d 587e 813d f982 7d3d
00000190: ce83 a73d d818 a53d 20e9 a93d 1002 a73d
000001a0: 0478 9f3d 73f2 a03d b72d a03d 61ab a03d
000001b0: bc5d 1fbd 3993 22bd 7b59 1dbd 5b2a 20bd
000001c0: 6449 45bd 00f3 48bd 2f94 45bd 9a94 47bd
000001d0: d20a a33d d5fd 9c3d 80cd a53d 50b6 9e3d
000001e0: b360 5c3d 8b2c 663d 93a0 603d 0c6d 6a3d
000001f0: 6152 6a3d 4a97 6a3d cf57 723d 6724 723d
00000200: a8c8 243e 18f8 243e 51c6 263e 0284 243e
00000210: 3518 b33d 0d92 b13d ce7e b23d 23f7 b03d
00000220: 9761 28bd 792f 28bd f577 2abd 7426 29bd
00000230: a0cd 833d c32f 823d 97a3 853d 2636 833d
00000240: 182b a2bd 345e a3bd 5201 a7bd f834 a8bd
00000250: 1462 aa3d 7408 d03d 22da 9d3d 602c c43d
00000260: 257c 01be 0b10 03be 398c 01be 3719 03be
00000270: 1e47 35bd 531f 30bd ee93 35bd 755a 30bd
00000280: af3d a63d b907 a93d 4362 a63d 9bcd a83d
00000290: e3d6 a13d 4eab a03d 24ca a13d 0d62 a03d
000002a0: f975 893d e487 883d d00f 853d 2f6d 833d
000002b0: 0657 793d fc08 813d 6f4d 733d 7646 7b3d
000002c0: b257 bd3d 1d5a bc3d ccaf bb3d 4927 ba3d
000002d0: 62ca 2a3e 1d94 2b3e 4591 103e ce1a 123e
000002e0: bf25 a13d 3247 a13d eb84 a23d 9e71 a23d
000002f0: e1af 1bbd b2e1 1bbd bd44 1abd 0cc0 19bd
00000300: 2e0d 903d 1749 903d 723a 8f3d 46ec 8e3d
00000310: 70d4 0e3e 0676 0e3e 485e 103e f212 103e
00000320: d79a 893d 7eb3 8b3d 949a 8a3d f43c 8c3d
00000330: 2359 95be f584 52be c8d8 81be 826c 2dbe
00000340: eead f23d c255 f53d ae87 f93d 0d86 f83d
00000350: 72c8 f73d 32ae 0d3e 8e8d 0c3e f328 1b3e
00000360: 02ca 50bd 9f2f 50bd d8c7 51bd ab48 50bd
00000370: 894f 983d 8670 973d 5347 993d 49f8 973d
00000380: 78cc 1dbd 8662 1cbd b797 1fbd 368e 1ebd
00000390: 7e17 cd3d 79ce cb3d d467 ce3d deb3 cc3d
000003a0: 4764 b83d 7830 bc3d e710 b83d 191e bb3d
000003b0: a7ce 2cbd 0fc3 30bd b8dc 2dbd cbe7 30bd
000003c0: ed45 e0bd 511d e2bd 7384 f6bd a58f fcbd
000003d0: cfec a53d 37d5 bd3d 5318 ab3d 6a44 c23d
000003e0: 42ca 7b3d 347b 6a3d c24b 7b3d 1837 6a3d
000003f0: 490f 603d cee3 5c3d d373 5f3d 9013 5c3d
